playground/clf.pth (torch, 27943 bytes, 7 tensors)

model.0.weight f4 [16, 384]
0	0x3c962fd5	0.018333355
1	0x3cb61a8a	0.022229452
2	0xbc75a3bb	-0.01499265
3	0x3d20957d	0.039205063
4	0xbcde9bd6	-0.027173918
5	0x3d872874	0.06599513
6	0xbd2c9036	-0.042129718
7	0xbdc84843	-0.09779408
8	0xbd06aac3	-0.032877695
9	0x3c6887ac	0.014192503
10	0x3d73f3d2	0.059558697
11	0x3d3093fd	0.043109883
12	0xbd600cee	-0.05469983
13	0x3da0c1f4	0.078494936
14	0xbc1fc95a	-0.009752596
15	0x3d3d9246	0.046282075
16	0xbc3b65ec	-0.011437874
17	0x3cfdc41c	0.030977301
18	0x3a6105cc	0.00085839326
19	0xbd8bf78f	-0.068343274
20	0x3d2ccc52	0.042187043
21	0xbdc5325b	-0.09628745
22	0x3d2ae505	0.041722316
23	0x3bab63e9	0.005230416
24	0x3d137419	0.03599939
25	0xbacf0f93	-0.0015797488
26	0xbba6fde7	-0.0050961855
27	0xbc83bd8e	-0.016081598
28	0x3e12bc47	0.14329635
29	0x3d373f8d	0.04473834
30	0x3ce9fc2f	0.028562633
31	0x3dcd65d6	0.10029189
32	0xbd9273c3	-0.07150986
33	0xbda8931a	-0.082311824
34	0xbcf1a052	-0.029495392
35	0x3c1835ef	0.0092902025
36	0xbd7b4044	-0.061340585
37	0xbc5835ba	-0.013196403
38	0x3b9104a4	0.004425602
39	0xbc6d92c4	-0.014500324
40	0xbd339403	-0.043842327
41	0xbcb5c145	-0.022186885
42	0x3c9ab174	0.018883444
43	0xbd4c6177	-0.049897637
44	0x3cadd525	0.0212198
45	0x3d8236cf	0.0635811
46	0x3dbf33d5	0.09336058
47	0xbb852085	-0.0040627145
48	0x3bb4987d	0.005511342
49	0x3d0b35b0	0.033986747
50	0x3d7175a2	0.058950074
51	0xbd8c8151	-0.06860603
52	0x3d0998ad	0.03359287
53	0x3cf167a1	0.02946836
54	0x3d89ad8b	0.06722554
55	0xbc95453e	-0.018221494
56	0xbdadae1b	-0.084804736
57	0xbda77dc2	-0.08178283
58	0x3d93ce7a	0.07217117
59	0xbbd87ada	-0.006606442
60	0xbd9034dc	-0.07041332
61	0xbd6f29dc	-0.05838953
62	0xbc20298a	-0.009775529
63	0x3d03db55	0.032191593
64	0xbd0a4e02	-0.0337658
65	0xbd857400	-0.06516266
66	0x3d610d6b	0.054944437
67	0x3dec8e46	0.11550574
68	0x3cf5c003	0.029998785
69	0x3d508477	0.05090758
70	0xbd866285	-0.0656176
71	0x3d1a3d38	0.03765604
72	0xbd4b78a1	-0.049675588
73	0x3d224e5b	0.039625507
74	0x3ca9fe9b	0.020751288
75	0x3daa7da6	0.08324747
76	0xbd8db56d	-0.0691937
77	0xbd5021dc	-0.05081354
78	0xbdb949ca	-0.09047277
79	0xbd5300ed	-0.051514555
80	0xbcd0b846	-0.025478493
81	0xbd8c55a2	-0.06852271
82	0x3c0368ef	0.008020624
83	0xbd19e271	-0.037569467
84	0x3e09a317	0.1344112
85	0x3a124f18	0.0005581244
86	0x3cb0925d	0.021554166
87	0xbe02eae2	-0.12784913
88	0xbc553584	-0.013013247
89	0x3d9b7fbe	0.07592724
90	0xbddd5a8a	-0.108082846
91	0xbce460a7	-0.027878119
92	0xbd9bb4f4	-0.076028734
93	0x3ca21e06	0.019789707
94	0xbd9674a0	-0.07346463
95	0xbd5fff96	-0.054687105
96	0x3caab65a	0.020838905
97	0x3d488fb1	0.04896516
98	0x3c96deb9	0.01841675
99	0x3d4ccccf	0.05000001
100	0x3d1d6fa5	0.03843655
101	0x3cf86d5f	0.03032559
102	0x3db704b1	0.08936442
103	0x3e1d17ca	0.15341106
104	0xbd78da56	-0.060755096
105	0xbd4d7110	-0.050156653
106	0xbab0daa9	-0.00134929
107	0xbc5f0ca4	-0.013613854
108	0xbd40bea6	-0.047056817
109	0x3d6e0e75	0.058119256
110	0xbcadb1c0	-0.021202922
111	0xbd3e30f6	-0.04643341
112	0xbc369734	-0.011144448
113	0x3d221dd5	0.03957923
114	0xbd81cd24	-0.063379556
115	0xbdcec613	-0.100963734
116	0x3cc1acfc	0.023642056
117	0x3d6cb406	0.05778887
118	0xbca876ee	-0.020564523
119	0x3c96b4e9	0.018396812
120	0xbdb2d669	-0.08732302
121	0xbd053b30	-0.03252715
122	0x3c9f281d	0.019428307
123	0xbd5bae58	-0.053633064
124	0x3d807852	0.06272949
125	0xbcb5a1b5	-0.022171834
126	0xbdaabd7e	-0.08336924
127	0x3da37431	0.07981146
128	0x3cc54a84	0.024083383
129	0xbbd9d1d4	-0.006647328
130	0xbdcb1754	-0.09916559
131	0xbcc1bb94	-0.023649015
132	0x3d94326b	0.07236179
133	0xbcd76d46	-0.026297223
134	0x3bc49a10	0.005999811
135	0x3a29b9a4	0.0006474501
136	0x3d9ca97a	0.076495126
137	0x3d4ab92e	0.049493007
138	0xbd076a0d	-0.033060122
139	0x3c51d00f	0.012805953
140	0x3d74ba17	0.05974778
141	0xbd78a42d	-0.060703445
142	0x3d319578	0.043355435
143	0x3cf6d5bb	0.030131212
144	0xbb6a9d72	-0.003579941
145	0xbdd7ddd0	-0.10540354
146	0xbb9d2fb7	-0.004796948
147	0xbc369b04	-0.011145357
148	0x3ce497f0	0.02790448
149	0x3d11d4a1	0.03560317
150	0xbdd9f2e4	-0.10642031
151	0xbd8917ee	-0.06694017
152	0xbd828927	-0.06373816
153	0xbc2bf450	-0.01049526
154	0xbd61cf59	-0.055129383
155	0x3b8eb285	0.0043547773
156	0x3c474dab	0.012164514
157	0x3e0018fb	0.1250953
158	0xbba3547f	-0.004984438
159	0xbd344faf	-0.044021305
160	0xbd8d5084	-0.06900123
161	0xbc8c6e86	-0.017142545
162	0x3dae84fe	0.0852146
163	0x3d8e1568	0.06937677
164	0xbc2fcc74	-0.010729898
165	0x3d0ddc9b	0.034634214
166	0xbca99dbb	-0.020705095
167	0x3c86c169	0.016449647
168	0xbd9879be	-0.074450955
169	0xbd10f94f	-0.03539401
170	0xbc97985f	-0.018505273
171	0xbd6b489c	-0.057442293
172	0x3d256506	0.040379547
173	0x3d6ad4b2	0.05733175
174	0xbca1b23a	-0.019738305
175	0xbac1f6aa	-0.0014798243
176	0xbcf53dab	-0.029936632
177	0x3d7b599f	0.061364766
178	0xbd83916c	-0.064242214
179	0x3b5b40d3	0.0033455386
180	0xbd6d9c0a	-0.05801014
181	0x3be8a52c	0.007099768
182	0xbce64edc	-0.028113775
183	0x3d30d4d6	0.043171726
184	0xbd9580d0	-0.0729996
185	0x3d94af53	0.07260003
186	0xbda0bc66	-0.07848434
187	0xbd4ad12d	-0.04951589
188	0xbd5ebe86	-0.054380916
189	0xbcb58b36	-0.022161108
190	0x3d33f982	0.04393912
191	0xbdcb7a14	-0.09935394
192	0x3d171d05	0.03689291
193	0xbc344a0e	-0.011003984
194	0x3de82803	0.11335757
195	0x3d517e4d	0.05114584
196	0x3d80786e	0.0627297
197	0x3d299727	0.041403916
198	0x3de25e47	0.11053138
199	0x3dd29976	0.102831766
200	0xbd2d83df	-0.04236209
201	0xbd15b633	-0.03655071
202	0x3d8d1086	0.06887917
203	0x3bd8b090	0.0066128448
204	0x3dc98cff	0.09841346
205	0x3dc55d46	0.09636931
206	0x3e091665	0.13387449
207	0xbd47a9b7	-0.048745837
208	0x3d877370	0.06613815
209	0x3db3fd08	0.08788496
210	0xbdf4f07f	-0.119599335
211	0x3d618092	0.055054255
212	0xbb183bb7	-0.0023228952
213	0xbd2b1b50	-0.041774094
214	0x3e00e771	0.12588288
215	0xbc37f769	-0.011228421
216	0xbdcb321a	-0.099216655
217	0x3d4ccad2	0.049998112
218	0xbaff18bd	-0.0019462329
219	0x3d726ab9	0.05918381
220	0x3dbd5155	0.092440285
221	0xbd150196	-0.036378466
222	0xbd16d181	-0.036820892
223	0xbd09dad2	-0.03365595
224	0x3d2fe7c6	0.042945646
225	0x3d0c25ea	0.034215845
226	0xbd9a72f8	-0.0754146
227	0x3cf937c3	0.030422097
228	0x3c3e11b9	0.011600905
229	0xbc962294	-0.018327035
230	0x3d0141e3	0.031556975
231	0x3c318cc6	0.010836786
232	0x3cf409f0	0.029789895
233	0x3c48b751	0.012250737
234	0xbd82880c	-0.06373605
235	0xbd54a247	-0.051912572
236	0x3c53c6d0	0.012925819
237	0x3cc93427	0.024561001
238	0xbc147aef	-0.009062513
239	0x3acdea09	0.0015710007
240	0x3cfdf219	0.03099923
241	0x3d958f83	0.07302763
242	0x3d27260c	0.04080777
243	0xbdaf2d7a	-0.08553596
244	0x3d85f346	0.06540541
245	0x3d0f1afa	0.034937836
246	0xbc490b22	-0.012270721
247	0x3b701938	0.0036636125
248	0x3d6ff355	0.05858167
249	0xbcb089db	-0.02155011
250	0xbdaf6d61	-0.08565784
251	0x3c71bedb	0.014754976
252	0xbd2b2cbb	-0.041790705
253	0x3ddf960b	0.1091729
254	0xbd15f415	-0.036609728
255	0x3d1f7142	0.03892637

model.0.bias f4 [16]
0	0x3e17e384	0.14832884
1	0x3e269ee5	0.16271551
2	0x3e243b4b	0.16038243
3	0x3e2ccaa7	0.1687418
4	0x3e7ff6e3	0.24996524
5	0x3e409e80	0.18810463
6	0x3e1a68f0	0.15079093
7	0x3e580c81	0.2109852
8	0x3e4c8147	0.1997119
9	0x3e243730	0.16036677
10	0x3dcdfad0	0.10057604
11	0x3dba9841	0.091110714
12	0x3e613698	0.21993482
13	0x3dcca4e5	0.09992389
14	0x3dc01d38	0.09380573
15	0x3e03185d	0.12802263

model.2.weight f4 [8, 16]
0	0xbd039a94	-0.03212984
1	0x3d7e3fbd	0.062072504
2	0x3e860c82	0.26181418
3	0x3dda0679	0.10645766
4	0xbd3a2d76	-0.04545351
5	0xbe3ad07e	-0.18243596
6	0xbd7e67a1	-0.062110547
7	0xbb0d4b9b	-0.0021559957
8	0x3e105c19	0.14097632
9	0xbe186ca8	-0.14885199
10	0x3da20c5a	0.07912512
11	0x3e90becb	0.28270563
12	0xbc7c1d12	-0.01538779
13	0x3ed30fc6	0.41222972
14	0xbe12b083	-0.14325146
15	0x3e6fbcdb	0.23411886
16	0xbe3a4ab5	-0.18192561
17	0xbdf70b31	-0.120626815
18	0x3e2af180	0.16693687
19	0x3e206030	0.15661693
20	0x3de92143	0.11383297
21	0xbbb2c711	-0.0054558595
22	0xbd9efba0	-0.077628374
23	0x3d7d4956	0.061837517
24	0x3e53acf2	0.20671442
25	0xbe225575	-0.15852912
26	0x3eb1384c	0.34613264
27	0x3e6b81dd	0.22998758
28	0xbdd26955	-0.10273997
29	0x3e800409	0.2500308
30	0xbdf5599d	-0.11979983
31	0x3e444c69	0.19169773
32	0x3ed50814	0.41607726
33	0x3ed3b9f1	0.413528
34	0x3ddfabbc	0.109214276
35	0x3de72ea5	0.112881936
36	0x3e35ec66	0.1776596
37	0x3eb2fa30	0.34956503
38	0x3edd1878	0.4318273
39	0x3ea14933	0.3150116
40	0x3e41daa9	0.18931068
41	0x3e7e2324	0.24818093
42	0xbe520785	-0.20510681
43	0xbe3dc089	-0.18530478
44	0x3ec3414b	0.38135752
45	0xbe85f3db	-0.2616261
46	0x3e80c25c	0.25148284
47	0xbe1caeec	-0.15301102
48	0x3e30fb59	0.17283382
49	0x3e107b5c	0.14109558
50	0x3e9da6eb	0.3079141
51	0x3ece75fd	0.40324393
52	0x3ec650c0	0.38733482
53	0x3e3069a3	0.17227797
54	0x3e2e2057	0.17004524
55	0x3e0e36bc	0.13888067
56	0x3e8b5dc6	0.2721998
57	0x3df9e714	0.12202278
58	0x3e11ac7c	0.14225954
59	0x3e39029f	0.18067406
60	0x3d62c7d2	0.055366345
61	0x3da3b4f4	0.079934984
62	0xbd583085	-0.052780647
63	0x3ebeb84d	0.37249985
64	0x3e24c421	0.16090442
65	0x3eba08e1	0.363349
66	0x3d80c68d	0.062878706
67	0xbd25b850	-0.040458977
68	0x3e5811c4	0.21100527
69	0x3e13d967	0.14438401
70	0x3e828bf4	0.254974
71	0x3e9eb0be	0.3099422
72	0x3dc6ef4a	0.097136095
73	0x3ea1d490	0.31607485
74	0xbe49ac11	-0.19694544
75	0xbe00fdef	-0.12596868
76	0x3ea7cbb2	0.32772595
77	0xbe563af1	-0.20920922
78	0x3eaa1608	0.33219934
79	0xbdfc0c13	-0.123069905
80	0xbe967b01	-0.2939072
81	0xbe481c69	-0.19542088
82	0x3e7bab97	0.24577175
83	0x3ee9ce5a	0.45665246
84	0x3e7045f0	0.23464179
85	0xbe13641c	-0.14393657
86	0xbe643d47	-0.22289
87	0xbc80d9de	-0.015728887
88	0x3eb6024e	0.35548633
89	0xbdcd990b	-0.10038956
90	0x3eb59acf	0.35469672
91	0x3dfa815a	0.12231703
92	0xbe267ed6	-0.16259322
93	0x3eb9a6af	0.36259982
94	0xbebd85fe	-0.3701629
95	0x3eaad097	0.33362266
96	0xbe96c633	-0.2944809
97	0xbe5c4c9b	-0.21513598
98	0x3e548811	0.2075503
99	0x3e914118	0.28369975
100	0x3e749578	0.23885143
101	0xbd5f429d	-0.054506887
102	0xbe4d325c	-0.20038742
103	0x3d954e4e	0.07290326
104	0x3e4d82d2	0.20069435
105	0xbda5e641	-0.08100558
106	0x3ed2b24b	0.41151652
107	0x3eacf45d	0.33780184
108	0xbe09b2c1	-0.13447095
109	0x3e9bab29	0.30404022
110	0xbe909818	-0.28241038
111	0x3ecb0528	0.3965237
112	0x3ecc6cf6	0.3992688
113	0x3eb697ff	0.3566284
114	0x3e676ace	0.22599337
115	0x3e8e62dc	0.278098
116	0x3ee12748	0.43975282
117	0x3e9c44b7	0.30521175
118	0x3edde405	0.43338028
119	0x3e7ce7b9	0.2469777
120	0x3e8bdc1f	0.27316377
121	0x3ee0b7ea	0.43890315
122	0x3da29bdc	0.07939884
123	0x3e05d403	0.13069157
124	0x3f05ca05	0.5226138
125	0x3d9447b1	0.072402366
126	0x3ec5bcc0	0.38620567
127	0x3e082098	0.13293684

model.2.bias f4 [8]
0	0x3dc0cf17	0.09414499
1	0x3d0a3817	0.033744898
2	0x3eb64f16	0.35607213
3	0x3e9e278f	0.30889556
4	0x3dc2adb6	0.09505789
5	0x3e3be1ee	0.18347904
6	0x3e6ab3fa	0.22920218
7	0x3e9fb073	0.31189308

model.4.weight f4 [8, 8]
0	0x3dfbdf83	0.12298491
1	0x3e8d5a73	0.2760807
2	0xbea59819	-0.32342604
3	0x3ec029b1	0.37531808
4	0xbe3f23fa	-0.18666068
5	0x3e1cb1d9	0.15302218
6	0x3ec905a3	0.39262113
7	0x3df5cbb1	0.12001742
8	0xbe91d639	-0.2848375
9	0xbe4131b9	-0.18866624
10	0x3ee6bac7	0.45064375
11	0x3efb3963	0.4906722
12	0x3f03295f	0.51235
13	0xbef1a87a	-0.4719885
14	0xbed938af	-0.4242606
15	0x3e2cf0a1	0.16888668
16	0xbdbe69ee	-0.09297548
17	0xbe4f9f97	-0.20275722
18	0x3f25235b	0.64507073
19	0x3dd39de3	0.10332849
20	0x3e003cc4	0.1252318
21	0xbeafad86	-0.34312075
22	0xbece85b6	-0.40336388
23	0x3ec1ba6e	0.37837547
24	0x3e63a92f	0.22232507
25	0x3edc6ef8	0.43053412
26	0x3d740580	0.059575558
27	0x3ee5d778	0.44890952
28	0xbea5a820	-0.32354832
29	0x3f1fc739	0.62413365
30	0x3eecbe74	0.46239054
31	0xbe2a0cb7	-0.16606413
32	0x9f74927b	-5.1790176e-20
33	0x9d1da148	-2.0862157e-21
34	0xa6e3509b	-1.5773137e-15
35	0xbb086402	-0.0020811562
36	0x209b7b3a	2.6339566e-19
37	0xa034ac58	-1.5303617e-19
38	0xba923725	-0.001115535
39	0xb99f28b8	-0.0003035718
40	0x3ec24862	0.3794585
41	0x3e8c0007	0.2734377
42	0xbe80c260	-0.25148296
43	0x3e972c2d	0.2952589
44	0xbe51a71c	-0.20473903
45	0x3ef60ed1	0.4805818
46	0x3e7ba9e1	0.24576522
47	0x3def8a59	0.116963096
48	0xbe0f9ee6	-0.14025459
49	0x3cfb1bf4	0.030652978
50	0xb78e13f4	-1.693701e-05
51	0x3dd5ef70	0.1044606
52	0x3babab24	0.0052389074
53	0xbba5fda9	-0.005065639
54	0x3e152906	0.1456643
55	0xbe941303	-0.28920755
56	0x397bec2e	0.00024025209
57	0x3c0371a9	0.008022704
58	0xbdd239f4	-0.1026496
59	0x3d05b41e	0.032642476
60	0xb50dae72	-5.2780445e-07
61	0xb9bb79d0	-0.00035758177
62	0xbdd8e8b9	-0.10591263
63	0xbcc4b8ac	-0.02401384

model.4.bias f4 [8]
0	0x3d1f0c6b	0.038830202
1	0x3ea660b8	0.32495666
2	0x3e35d8f1	0.17758538
3	0x3de0a95f	0.10969805
4	0xb6a0f27f	-4.796602e-06
5	0x3c4be9ce	0.01244588
6	0xbc8eea30	-0.017445654
7	0x3dbd67e6	0.09248333

model.7.weight f4 [1, 8]
0	0xbee564d5	-0.4480349
1	0x3ef75dca	0.48313743
2	0x3ee10f74	0.43957102
3	0xbeba41fd	-0.3637847
4	0xa40219c9	-2.8211097e-17
5	0xbebcece9	-0.36899498
6	0x3d1528b9	0.03641579
7	0x3d3bc8fb	0.045845967
