playground/clf2.pth (torch, 27953 bytes, 7 tensors)

model.0.weight f4 [16, 384]
000000 ed f1 a0 3c a6 b2 88 3d a4 cd b9 3c ca eb 85 bc
       0.01964661 0.066746995 0.022681065 -0.016347785
000010 7a f3 18 bd 28 2d 1c 3d 73 d0 01 be d6 55 05 bd
       -0.037341572 0.038129 -0.12677173 -0.032552563
000020 1a b8 b9 3c b6 78 a1 bd e9 b2 4e 3d cf 8e 98 bc
       0.022670794 -0.07884352 0.05046359 -0.018622784
000030 98 9a 02 bc 31 3f 38 bd 28 9b 88 bb 62 0d 8d 3c
       -0.007971428 -0.04498214 -0.0041688867 0.017218295
000040 ba b2 10 bd 9c de 26 3d 4e c1 60 bd 51 aa ad bc
       -0.035326697 0.04073964 -0.05487185 -0.021199377
000050 e6 1b 5f bd 66 2a 33 3d 9a 90 ad bc da 51 33 3c
       -0.054469965 0.043741606 -0.021187115 0.010944808
000060 a7 d4 9f 3d ec 3b 2e 3d 99 b7 b7 bc 2f a4 b4 bd
       0.07804232 0.042537615 -0.022426413 -0.08820378
000070 7f 91 8f bc bf 04 7b bd 3b 9b 88 3d e2 11 c0 bd
       -0.017525433 -0.061283823 0.06670233 -0.09378411
000080 5d d8 4f bd 26 f1 19 bd 51 7e 8a bb 89 15 f1 bd
       -0.05074345 -0.037583493 -0.004226484 -0.11771686
000090 d2 8c 11 3d cc 40 88 3d df d4 54 bd 47 cb b8 bc
       0.035534687 0.06652984 -0.051960822 -0.022557868
0000a0 73 02 95 3d 4a 28 a6 bd 4c 75 5f bd 33 99 8c 3d
       0.07275858 -0.08113153 -0.054555222 0.06865158
0000b0 f4 5c 85 3d 78 c1 87 3d 28 93 0f bd 5a 9d b6 3d
       0.0651187 0.06628698 -0.03505245 0.08916731
0000c0 5b d7 42 3c 4e 36 13 3b e0 42 33 3d 09 f9 3e bd
       0.011892165 0.0022462788 0.04376495 -0.046624217
0000d0 f3 bd 91 bd a0 2a 88 3c 99 5e b4 bc 0d e7 49 bd
       -0.07116308 0.016621888 -0.022017764 -0.049292613
0000e0 bd ae ae 3c ee 6e 94 bd 55 83 e1 3c da 16 78 bd
       0.021323556 -0.07247721 0.027528444 -0.060568668
0000f0 f0 86 5f 3d ea 83 a9 3d 1d 2e 14 bc 79 7f 18 3d
       0.054572046 0.08277114 -0.009044197 0.037230942
000100 1a 22 88 bd e2 a6 04 bd 1e 4c 17 bd ba 44 b9 3d
       -0.06647129 -0.032385714 -0.036937825 0.09046312
000110 b6 80 9d 3c 6f 56 ee bc 16 57 8c 3d 48 e0 83 bd
       0.019226413 -0.02909395 0.06852548 -0.06439263
000120 14 af 9f bd 32 af 09 bd 3c d2 f9 bc c3 36 44 bd
       -0.077970654 -0.033614345 -0.030495755 -0.047903787
000130 e1 fd 7b 3c 88 71 d8 bc 7b 58 37 bd a9 a2 07 3e
       0.015380354 -0.026421323 -0.044762116 0.13245644
000140 fd 54 01 bc 9e d2 2d bd f1 05 38 3d ec 7d 2e 3d
       -0.007893798 -0.04243719 0.04492754 0.042600557
000150 8c 4b 00 3d e2 e6 cc 3d 1a 9d 2e bd b1 39 68 3c
       0.031322047 0.10004975 -0.042630292 0.014173911
000160 96 89 25 bd d7 1f 87 3c 78 b4 54 bd 3b 86 ac bc
       -0.040414415 0.016494675 -0.05192992 -0.0210601
000170 77 66 62 3d c2 6a c6 3d 91 ed 00 3e b7 62 08 3c
       0.0552735 0.09688331 0.12590624 0.008324317
000180 26 34 62 bc 34 59 59 3c 7d 67 0b 3d 0f 28 ec 3d
       -0.0138063785 0.013265897 0.03403424 0.11531078
000190 aa a2 b4 bc e4 c1 62 bd 6d 37 97 3d b7 1c 10 bb
       -0.02205022 -0.05536069 0.073836185 -0.0021989772
0001a0 57 d3 65 3d 7d 40 c0 bb 9b c9 aa bb de d0 b4 3d
       0.056109753 -0.0058670626 -0.0052120215 0.08828901
0001b0 13 0a 41 3d 13 63 ce bd 65 0f d2 3c f0 f2 83 bd
       0.04712875 -0.10077491 0.025642106 -0.06442821
0001c0 a8 87 26 3d a3 d9 24 3d 22 8e 1d bd 08 3b a7 3d
       0.040656716 0.040246617 -0.038465627 0.08165556
0001d0 73 35 76 3d cb 2c 8a 3d a9 dc 93 bd 1b 53 be bd
       0.060109567 0.06746825 -0.07219822 -0.09293195
0001e0 13 74 bb bd 94 1b dc ba bc 35 6d bd f7 32 4b bd
       -0.09152999 -0.0016792887 -0.057912573 -0.04960915
0001f0 6e 64 6f bd 71 91 a0 3d fa f1 a5 bc 3b 3e b5 bc
       -0.058445387 0.07840241 -0.020256985 -0.0221244
000200 b0 0d 74 bd b2 cb 1c ba 01 fd 0b 3d c7 cc be 3d
       -0.059583366 -0.00059812807 0.03417683 0.09316402
000210 08 5f f9 bb fd 0d 82 bc 49 57 ed 3a 86 27 46 bd
       -0.0076102056 -0.01587581 0.0018107678 -0.048377536
000220 05 05 9a 3c 89 1f d3 bc f5 df a4 3d df 17 ae 3b
       0.018801222 -0.025771873 0.08050529 0.0053129042
000230 73 bf fe bd 60 87 98 3b 8d 9a a0 3d be a5 37 bd
       -0.1243886 0.00465481 0.07841978 -0.0448358
000240 45 b7 04 bd 4c 06 bf bd 3c 66 94 3c b8 81 d0 3c
       -0.032401342 -0.09327373 0.018115155 0.02545248
000250 c4 0a ff bb db f4 c4 bd fc 79 0d bc f6 2b af bc
       -0.007783266 -0.09617015 -0.00863504 -0.021383267
000260 34 d5 4b bd e9 ca 96 bb a2 86 7a bb 96 8c ab bc
       -0.049763873 -0.0046018255 -0.003822722 -0.02094106
000270 78 66 c8 bd 83 04 f3 bc 52 8c b1 3d cf 50 e1 bb
       -0.09785169 -0.029665237 0.08669342 -0.006876088
000280 02 74 0a bd c0 f4 2c 3d 22 3d a0 3d 56 83 0e 3d
       -0.03380204 0.0422256 0.0782416 0.03479322
000290 2c 0d 7c bc 82 b4 44 bd bb 6f 86 3d fa 11 b7 3c
       -0.015384 -0.04802371 0.0656428 0.02234744
0002a0 d1 02 c0 bd ea 63 21 3e 70 60 2a bc 24 69 25 3c
       -0.09375537 0.1576077 -0.010398969 0.010095868
0002b0 96 1d a5 3d 06 bd 89 bd fd 73 22 3d ae bd a1 b9
       0.08062284 -0.067255065 0.039661396 -0.00030849635
0002c0 c5 3f a1 3b 31 fa d2 bb 97 9e 86 bd 11 0d 05 3d
       0.004920932 -0.0064385165 -0.06573217 0.032483164
0002d0 e1 94 eb bc 91 4e 8d 3c de f4 29 3d a9 ae 82 3d
       -0.028757514 0.017249377 0.04149329 0.0638097
0002e0 0e a0 84 3d f4 45 fe bb b8 8a 96 bd 57 3d 00 bd
       0.064758405 -0.007759804 -0.07350677 -0.0313085
0002f0 88 78 66 bd f8 b5 2e 3d 89 fe db 3c 5b d0 c7 bc
       -0.05626729 0.042654008 0.02685477 -0.024391344
000300 de da 1c 3c 10 c5 c2 bd 36 e0 34 3c 7b 1b 0e 3e
       0.009573666 -0.09510243 0.011039784 0.1387767
000310 ff dc 00 be 9a 1c 54 bd ea b0 c5 3d c7 ea e7 bb
       -0.12584303 -0.05178509 0.09652884 -0.007077548
000320 6d f3 ed 3d eb 0b d8 bc ad 45 fd bc 44 ab 9a 3d
       0.116186954 -0.02637287 -0.030917013 0.075521976
000330 8f 9e 50 3d 45 fa 74 bc 4a 95 a5 3c e7 6e 5c bd
       0.050932463 -0.014952247 0.020212788 -0.053816702
000340 b6 4f 5e bb 34 d8 b4 bd 45 4f 5a 3c a3 53 aa 3c
       -0.0033922023 -0.088303 0.013324563 0.020791834
000350 b8 ae 68 3c 40 89 e6 3c f5 c2 c6 3c 9f b1 0e 3d
       0.014201812 0.028141618 0.024262885 0.03483736
000360 86 59 6a 3d 6a 23 51 3d f6 4d 11 3d e8 bd 80 3d
       0.057214282 0.051059164 0.03547474 0.06286222
000370 2d a0 71 3c 48 39 3c 3d b9 92 54 3c d7 67 b8 3d
       0.014747662 0.045953065 0.0129744345 0.09004181
000380 82 d6 e3 3c 66 f7 38 bd 23 aa 7e bc 4a 87 a3 3d
       0.027812246 -0.045157813 -0.015543493 0.07984789
000390 6a 2b 74 bd 21 6e 43 3d 86 80 c7 3b 0c 42 41 bc
       -0.059611715 0.04771245 0.0060883192 -0.011795532
0003a0 7c 55 3b 3d 06 0d 22 3c 24 b8 a5 bc 60 b0 05 be
       0.04573582 0.0098908 -0.020229407 -0.13055563
0003b0 f4 a3 35 3d 34 20 54 bd 04 d9 99 bd 0a 96 a4 3c
       0.04434581 -0.051788524 -0.075120956 0.020091075
0003c0 89 04 36 3e 85 ee e6 ba 7c 5b d5 bb e5 0d 8c bd
       0.17775168 -0.0017618692 -0.00651115 -0.06838588
0003d0 26 16 e5 bd d7 97 86 3c de c0 be bc fe e8 bd bd
       -0.11185865 0.016429825 -0.023285326 -0.09272955
0003e0 e7 fa 96 bd c3 d1 df bc a1 4e 16 bd ee 38 41 bc
       -0.073720746 -0.027321702 -0.03669608 -0.011793358
0003f0 e1 e5 e4 bd f1 4d 81 3c e6 78 de bd 2b 48 8d 3d
       -0.111766584 0.015784236 -0.10862903 0.068985306

model.0.bias f4 [16]
000000 d6 41 c8 bd 84 ac 1b be ec bd 89 3d dc f2 ac bd
       -0.09778182 -0.15202528 0.06725678 -0.08444759
000010 d8 05 e7 bd a2 a8 74 bd 73 ab 46 be 8c b4 3d bd
       -0.112804115 -0.059731133 -0.1940134 -0.04631476
000020 85 dc a4 bd 6c 9a d5 3d 77 10 03 3e a4 a0 c2 bd
       -0.08049873 0.10429844 0.1279925 -0.09503296
000030 8c 6b d7 3c 90 5c e3 bd 00 a5 0b 3d 0d 73 f1 bc
       0.0262964 -0.11101639 0.034092903 -0.029473806

model.2.weight f4 [8, 16]
000000 07 37 0a 3e 19 79 26 be b1 b5 ca 3d 40 5a f0 3c
       0.13497554 -0.16257133 0.09897936 0.02933991
000010 fd 9d 77 3e 3b fc 5f 3d 0f 4a e5 3d bd 85 6a 3d
       0.24181361 0.054683905 0.11195766 0.05725645
000020 21 6f 79 3e e9 23 ab 3d 57 89 bb 3e 59 22 88 bd
       0.24358799 0.08356459 0.3662822 -0.06647176
000030 88 22 17 3e 69 84 77 3e 57 4b c9 bd 1d dd 8e bb
       0.14759266 0.24171604 -0.09828823 -0.004359855
000040 b2 76 86 3e d1 88 94 3c 44 dc b3 be ab a1 ec 3c
       0.26262432 0.018131645 -0.35128987 0.028885683
000050 38 21 88 3e 19 c1 c2 3d 3d cd 77 be f4 cc f2 3d
       0.26587844 0.09509487 -0.24199386 0.11855498
000060 7c 46 d8 be 04 4e 8d 3d 6d 7e d8 3e 4a 77 f2 be
       -0.42241275 0.06899646 0.42283955 -0.47356635
000070 de 63 8f 3d 40 8e f3 3e 05 95 7e 3e 68 1d 1d 3e
       0.0700147 0.47569466 0.24861534 0.15343249
000080 8a 27 8b 3e 98 5d 82 3d b0 17 f2 bc 0f ab af 3e
       0.27178603 0.06365508 -0.02955231 0.34310195
000090 92 eb b3 3e c1 49 92 3e 4f f9 a9 be 28 4a d2 3e
       0.35140663 0.28571895 -0.3319802 0.41072202
0000a0 2d 05 fd 3d 71 59 1e be 87 bc 5c 3e 39 78 c1 be
       0.12354503 -0.15463807 0.21556292 -0.37787035
0000b0 fb f1 8b be 8a d3 5c 3e 9d 48 17 3e 52 47 9b 3e
       -0.27333054 0.21565071 0.14773794 0.3032785
0000c0 e3 c9 82 be e4 1c 00 bf 98 ad 2c 3e 89 9c 41 3a
       -0.25544652 -0.50044084 0.16863096 0.0007385691
0000d0 fc eb ca 3d 82 47 ba be 96 a2 8c 3d 68 52 a2 be
       0.09908292 -0.3638268 0.06866948 -0.31703496
0000e0 22 b3 66 3e 61 81 8e 3e 6c cf 29 3e d5 f7 88 3e
       0.22529271 0.27833083 0.16583031 0.2675158
0000f0 51 64 49 3e 15 32 a4 3d 3e b4 c4 bd a4 5c 89 be
       0.19667174 0.08017365 -0.09604691 -0.26828492
000100 e7 81 8f 3e 92 dd 91 3e c4 ad cc bc eb bb 90 3e
       0.28028795 0.28489357 -0.024985202 0.2826837
000110 08 d3 78 3e 5a 75 77 3e 77 3f 3c be cc 3e 02 3e
       0.24299252 0.2416586 -0.18383585 0.12719268
000120 74 64 b0 3c 21 48 ef bd 1e a6 47 3e 9a 1b 7a be
       0.021532275 -0.11683679 0.19496962 -0.24424592
000130 8a 7f 3e be 0f 80 4a 3e 2d c2 7a 3e 88 cc 9d 3e
       -0.1860334 0.19775413 0.24488135 0.30820107
000140 89 16 2e 3e 5d f2 23 be 16 ab bd 3d d1 58 54 be
       0.17000784 -0.16010423 0.09261148 -0.20737006
000150 d5 00 90 bd d3 f3 98 3d a6 d0 1c 3e 5a 74 1c 3b
       -0.07031409 0.07468381 0.15313968 0.0023873062
000160 2f 9e 88 be b9 10 94 be 8c 3d 19 be 21 cb 5d 3d
       -0.26683185 -0.28919008 -0.14964885 0.054148797
000170 da f4 09 3e 27 65 45 be 00 91 e7 bd 85 87 81 3e
       0.1347231 -0.19276868 -0.113069534 0.25298706
000180 32 6c 06 bd 0b ac b8 be 8d aa 9d 3e 8f 9d ac be
       -0.032818027 -0.36068758 0.30794182 -0.33713958
000190 9e f5 7d be 68 d0 d4 bd be 2e f9 3e de 4e 0c be
       -0.24800727 -0.10391313 0.48668474 -0.1370196
0001a0 ec cc 82 3e e5 eb cf 3e ca f7 4a 3e cf 29 24 3e
       0.25546968 0.4060966 0.19821087 0.16031574
0001b0 ff 79 13 3f e9 86 be bd b4 51 a7 be 1a 2a b8 be
       0.57608026 -0.09303076 -0.32679522 -0.3596962
0001c0 52 68 36 3e 90 86 d5 3d f4 7d c8 bd 99 f0 8a 3e
       0.17813233 0.104260564 -0.09789649 0.27136686
0001d0 35 34 e9 3d ea f8 18 3e 73 7a aa bd 45 47 99 3e
       0.11386911 0.14938703 -0.083241366 0.29937187
0001e0 cf 35 79 bd 0f f2 28 be 6d 6d a6 3e fe 4b 2e be
       -0.06084233 -0.16498588 0.3250536 -0.17021176
0001f0 5a ca 24 be ac 99 27 3e 6d ae e1 3d ce 0c b0 3d
       -0.16092816 0.16367215 0.11019597 0.08596192

model.2.bias f4 [8]
000000 20 2b cb 3b 97 db 18 be 9d 5a 4e be 0c ef 9f 3e
       0.0062002093 -0.14927517 -0.20151754 0.31237066
000010 95 62 81 be 4f 6b 9a 3d ba 56 c9 bd 72 94 39 be
       -0.25270525 0.07539999 -0.09830995 -0.18123034

model.4.weight f4 [8, 8]
000000 47 ef 72 bd 47 d5 45 be b5 c2 54 be 4e e6 d0 3e
       -0.059310224 -0.1931964 -0.207774 0.4080071
000010 32 72 58 be 72 eb 3d 3e 05 fb 20 3f 1d 61 7b be
       -0.21137312 0.18546847 0.62883025 -0.24548765
000020 d0 66 be 3e ea 58 89 be fd 91 cf be 0d 6d 2c 3e
       0.37187815 -0.2682565 -0.40541068 0.16838475
000030 cd 1e a2 be 0a e6 5e 3e ed 46 cc 3e f3 2b a2 be
       -0.31664124 0.2176744 0.39897862 -0.31674156
000040 40 d8 83 3c b0 99 f8 3e 81 4d 9a 3e 0d 72 ea bd
       0.016094327 0.48554754 0.30137256 -0.11447535
000050 bc 0e e6 3e e3 a6 c7 be 3c 64 5b be d0 9d 9b 3e
       0.44933116 -0.38994512 -0.21424955 0.3039384
000060 8d 70 8f 3e 2e 08 05 3f 40 77 ef 3e 65 49 4f be
       0.28015557 0.51965606 0.46770668 -0.20242842
000070 85 30 77 3e 77 ed cd be 60 4b f7 be 2c 25 6a 3e
       0.24139602 -0.40220234 -0.48299694 0.22865742
000080 3b 38 c2 3d 06 99 36 be ab 92 60 be 2d 35 88 3e
       0.09483381 -0.17831811 -0.2193095 0.2660307
000090 f4 f3 24 be 05 f4 2b 3e ef c3 ba 3e f3 46 3a be
       -0.16108686 0.16792305 0.3647761 -0.18191127
0000a0 b8 6b 3c 3e 39 b7 9e be 44 40 c4 be 0b d7 d4 3e
       0.18400466 -0.30999163 -0.3833028 0.41570315
0000b0 6f e1 97 be b2 50 5c 3e 0e e3 df 3e c2 0b 81 be
       -0.2966418 0.21515158 0.43727916 -0.25204283
0000c0 b8 6b a2 3e c9 27 1f 3f c3 c7 7b 3e e9 92 c8 be
       0.31722808 0.6217008 0.24587922 -0.39174584
0000d0 38 e2 dc 3d 5c 92 ad be 0c b0 0b bf 15 64 ce 3e
       0.10785335 -0.33900726 -0.545655 0.40310732
0000e0 52 8d 69 3e 40 2e 31 be b4 ac ac be c6 c6 aa 3e
       0.22807816 -0.17302799 -0.33725512 0.33354777
0000f0 a6 65 8a be 88 3f 43 3e 08 b6 0e 3f fb ce 8a be
       -0.27030677 0.19067204 0.5574651 -0.2711104

model.4.bias f4 [8]
000000 6d 8e 79 3e 25 17 82 3e 8d 8b 38 be ba fe 12 be
       0.24370737 0.25408283 -0.18021984 -0.14354983
000010 c6 12 16 3e 37 bf 9e 3e 8d 2c 4a 3e da a0 0c 3e
       0.14655599 0.3100526 0.19743557 0.13733235

model.7.weight f4 [1, 8]
000000 01 7a f2 be 4d 5f 0b bf 13 1f 32 3f 41 f3 19 3f
       -0.47358707 -0.5444229 0.69578665 0.601368
000010 8a 9a 03 bf f1 a4 fc be 48 83 04 3f 37 af d0 be
       -0.5140768 -0.4934459 0.5176282 -0.40758678
