playground/clf3.pth (torch, 27953 bytes, 7 tensors)

model.0.weight f4 [16, 384]
00000000: b1c7 b3bb 727a 903c b599 3e3d 8e36 803d
00000010: 65b9 14bd a99d f7bb 4181 2dbe ab49 583d
00000020: 4567 e7bc c670 0cbd 9418 abbd 685d e63d
00000030: 03c1 593d b0f0 e83d bf1e a1bd d73c dbbc
00000040: cc1a 41bd bd5e 07be 1607 15bd 200f 103d
00000050: f6f9 2f3d 116a 53bc f9ce 9cbd 08d9 5b3c
00000060: e67b 63bd 6f3b 1e3d c843 a0bd a5c1 92bd
00000070: 6b48 c1bd f9a9 98bd 8840 1f39 1ae0 27bc
00000080: 7cd0 8fbc b599 963c 6aa5 0a3d d1e1 04bd
00000090: 8af2 5a3d a44a e63c 5b9a 833c 1f07 07be
000000a0: 44d4 9dbc 628c 59bc 27d2 25bd d6cf 88bd
000000b0: 3d37 57bd 67b2 0fbd 7bb1 0b3a 211f 2f3d
000000c0: 4ab5 633d 6c85 823c 7a55 cc3c be92 033e
000000d0: 7d96 e9bc 81b6 07bd 4ff2 793c 0a50 a83d
000000e0: 9215 093e bc10 043d 80b0 77bd 3c68 25bd
000000f0: 3584 db3c 96ad 8c3a 31cc 8f39 b8fd 54bc
00000100: 4ad3 e6bd 7aa6 273d 6bbe adbc efe6 b63d
00000110: af18 113b e540 bebc 9914 b2bb 753d bbbc
00000120: 2830 593d fdf8 87bd 9522 a7bd f30a 8f3d
00000130: cadc 61bc 101b 33ba cb96 e83c 47e5 f0ba
00000140: a31b 20bd 22a5 833c 1af3 ccbc 04bc 943d
00000150: ff5b e4bc 274c 143d 4151 4d3d f3bb ab3c
00000160: f892 8d3d 30f0 bdbd c96d 86bd eb7f 05bd
00000170: 561d e1bd 558a 443d 4f4e 803b 3235 763d
00000180: ee3a 013e 48ef 99bb cbba 24bd 286e a63d
00000190: d90d f43c 6ca3 ffbc 604f c4bc d60b 0a3b
000001a0: 187f 443d a3d1 ed3a 2fcb ecbb eb7f 6c3d
000001b0: 7f3f e13d 8fed 3fbc 2b2e db3c 404f 87bc
000001c0: 0b7d 5a3d a65a 33bd c5e2 3bbb 5b7d a03d
000001d0: 6770 333d d3c2 0fbc f6d2 c7bd 41ce 27be
000001e0: 8132 393c 260e d7ba aedc 1bbd 97a6 743d
000001f0: 17b4 263d 3d43 6c3d ccaa dcbc bdfc c4bc
00000200: 1017 6ebb b7c4 6c3d af69 12bc 6a8e 34bd
00000210: 26a9 683d 17f3 7a3c 7cc2 e5bc feae 813d
00000220: 4610 653d 8ae0 073e db10 4b3d 1a5c 2bbc
00000230: de7d a0bc 230d 76bd 6788 593c 0ecf 44bd
00000240: d262 653d 3c35 973c 7571 163d 905b 9bbc
00000250: 1684 ebbd 0f8e 1e3c bf7d 0c3e 8b27 903d
00000260: ca9c 34bc db41 b7ba a520 a2bd 9aa2 babd
00000270: 1afe 843c 151b 86bd acf7 083e 6ae1 643d
00000280: 8d26 533b c593 8e3c ac92 99ba 8031 123c
00000290: a1c2 fcbd c776 743c 0617 343d 860b a2bc
000002a0: c87c 27bc dae5 db3c 6df7 54bd 7021 993d
000002b0: 66c3 a13c 5a91 50bd 489d b53d e9be ad3d
000002c0: c6c4 ca3d d9c8 6cbc fcf1 4a3e 2d64 8d3d
000002d0: 7764 533a c5a5 94bd 8574 1bbd f334 0bbd
000002e0: 183b 8e3d 6210 0abe da9f d8bc 6d6e 493d
000002f0: 5e0d 6dba 050b 5dbd ee91 a4bd d42e bb3c
00000300: c5cd 173d 8b28 a3bc b7f2 2cbd 6812 bb3d
00000310: b9cd d13d 55b9 4fbd 6e17 dbbd be4d d4bc
00000320: 4323 a0bd abe1 7dbd 81d2 953c 2e9b c33d
00000330: 240c 293d 7789 e3bc 74f4 d3bd d933 753d
00000340: 41ef acbd b4ae f03c d28d dc3d ced3 64bc
00000350: e9ba 183d f84a 86bd 97bc c5bd 80b5 893b
00000360: 60d8 a23a 921e 883d 473f c4bd 5485 073d
00000370: 2c05 8e3d d8ad 1dbd 907a a93d 022b 8b3d
00000380: d56f 9a3c 02c6 e2bc b96a 4ebc 5cdb c8bc
00000390: 0d69 69bb 7f44 433b 847e 6cbd 6d08 693d
000003a0: 13a0 aa3d 3520 b73d c7ee 7ebd 849f 983d
000003b0: 3cf1 fb3a 0b2c bebd f919 9d3c 968b 0c3d
000003c0: 9ae1 0e3e 0076 833d f26a dcbc 33dd 2abd
000003d0: 814c 873d f1fa 273d 869e 8a3d 9ba4 e8bd
000003e0: 8440 b7bc dd3d 7c3d 21a7 5c3d 5bb9 c73c
000003f0: 212b 3fbd 5639 87bd 0d5f 073d 4cec ac3c
-0.0054864516 0.017636511 0.046533305 0.062604055 -0.03630962 -0.0075566364 -0.16943838 0.05280463
-0.028247485 -0.034287237 -0.08354297 0.112482846 0.053162586 0.113740325 -0.078671925 -0.02676241
-0.047144696 -0.13219734 -0.03638371 0.035170674 0.04296299 -0.012903706 -0.076566644 0.0134184435
-0.05553808 0.0386309 -0.07825428 -0.07165841 -0.09437641 -0.07454295 0.00015187461 -0.010246301
-0.017555468 0.01838384 0.033849157 -0.032441918 0.05345396 0.028111763 0.016064813 -0.1318631
-0.019266255 -0.013278099 -0.04048362 -0.066802666 -0.052542914 -0.035082247 0.0005328876 0.042754296
0.055592813 0.015932761 0.024943102 0.12848946 -0.028514141 -0.033133034 0.015255525 0.08218391
0.13387135 0.03224252 -0.060471058 -0.04038261 0.02679644 0.0010732885 0.0002742722 -0.012999944
-0.11270769 0.04093025 -0.021208962 0.08930766 0.0022139957 -0.023224303 -0.0054345843 -0.022856453
0.05302444 -0.066392876 -0.08160893 0.0698451 -0.01378555 -0.0006832341 0.028392216 -0.0018378877
-0.039088856 0.016069952 -0.025018264 0.07262424 -0.027875898 0.036205437 0.050126318 0.020963645
0.06912798 -0.09274328 -0.065639086 -0.032592695 -0.109919235 0.047983486 0.003915585 0.060109325
0.12620136 -0.004697714 -0.040217202 0.081264794 0.02979176 -0.031205855 -0.02396363 0.0021064184
0.04797277 0.0018144142 -0.00722637 0.05773918 0.10998439 -0.011714353 0.026755413 -0.016517282
0.053341907 -0.04378762 -0.00286691 0.0783641 0.043808367 -0.008774477 -0.097570345 -0.16387273
0.011303545 -0.0016407415 -0.038052253 0.059729185 0.04069909 0.05768131 -0.026936911 -0.024046296
-0.0036329664 0.05780479 -0.00893633 -0.04408113 0.056801938 0.015316746 -0.028046839 0.06332205
0.055923723 0.13269249 0.04957662 -0.01045897 -0.019591268 -0.060071122 0.01327715 -0.048049025
0.056002446 0.018458001 0.036729295 -0.018964559 -0.11499803 0.009677424 0.13719843 0.07038792
-0.01102371 -0.0013981418 -0.07916383 -0.09113045 0.016234446 -0.06548134 0.1337573 0.055879034
0.0032219023 0.017404446 -0.0011716685 0.0089229345 -0.1234181 0.014920897 0.04396727 -0.019780885
-0.010222621 0.026843 -0.051993776 0.07477081 0.019746494 -0.050919868 0.0886789 0.08483679
0.09900813 -0.014452183 0.19818872 0.06903873 0.00080639817 -0.072581805 -0.03795292 -0.033986043
0.06944865 -0.13482812 -0.02644341 0.049177576 -0.00090428244 -0.053965587 -0.080356464 0.022849478
0.03706147 -0.019916793 -0.04222366 0.0913437 0.102443166 -0.050713856 -0.10697828 -0.025915977
-0.07819226 -0.061982792 0.018288853 0.095510826 0.041271344 -0.02777551 -0.1034936 0.0598639
-0.084440716 0.02938018 0.107692376 -0.013966514 0.037287626 -0.06557268 -0.09655111 0.0042025447
0.0012424104 0.06646456 -0.09582382 0.033086136 0.0693458 -0.03849587 0.0827533 0.067953125
0.018852154 -0.027682308 -0.012598687 -0.024518661 -0.0035615594 0.0029795466 -0.057737842 0.0568928
0.08331313 0.0894169 -0.062239435 0.074523 0.0019221674 -0.09285744 0.019177424 0.034312807
0.13953248 0.06418991 -0.026906464 -0.04171486 0.06606389 0.0410108 0.06768517 -0.11359521
-0.02236963 0.061582435 0.053870324 0.024380377 -0.04667199 -0.06602733 0.033049632 0.021108769

model.0.bias f4 [16]
00000000: 14f9 163d 1952 6c3d 9298 283d b19e a7bd
00000010: fbfd 083e 83af 8b3d e39a 3dbc 7abe 603b
00000020: 255e 533d 335d 73be 0490 abbc e81b e7bd
00000030: 9b15 75bd 02ab 703e ce28 4abe 0419 4abe
0.036858633 0.057695482 0.041161127 -0.08184565 0.13378136 0.068205856 -0.011572572 0.003429322
0.051603455 -0.23766021 -0.020942695 -0.112846196 -0.059835058 0.23502734 -0.19742128 -0.19736105

model.2.weight f4 [8, 16]
00000000: b2f1 793e 93dc bb3e 74c9 813e 072d 8fbe
00000010: 9405 9a3e 48eb e7bd 5d07 403e a840 13bd
00000020: 2b6a b63e 6cbc a2be 9f72 07be 182c adbe
00000030: dfab a3be add2 083e 47cb 8ebe 1452 c0be
00000040: 7559 233e b718 b13e 4376 6f3e f7ef 88be
00000050: 7938 823e 80f3 03be dea7 963e 0d0e 2dbe
00000060: aa62 e03e 2270 79be 99dd f03c 64d1 cfbe
00000070: 3835 6ebe 0ea3 a33c a8c0 58be cff4 4fbe
00000080: 1903 9f3e c73c 613e 07ee 523e 4101 c9bd
00000090: 1270 6b3e e5f3 a33d f899 b23e 79a6 ea3d
000000a0: fa98 e03e 7fa8 95be 41b6 92bd 1c64 aabe
000000b0: 79bd 9fbd 2c84 5b3e bf3a 15be f94b 7ebe
000000c0: 7915 41bd 5d1c 90be 2bca 57bd 5e00 b23e
000000d0: a449 903d d2df 0b3f 7ecc 1ebe 0108 f23e
000000e0: 6926 7cbe 7340 dc3e b9d4 e13e 9845 193e
000000f0: 4e01 903e bde1 f73e ade0 a13e 3e22 413e
00000100: b924 82ba 2bed 65bd 5ae8 023d 4b14 0b3e
00000110: 92a0 c1be 0890 aebc 5f01 833d 0ab8 f6bd
00000120: 70e9 383e b0ac 7abd 4b78 72bd d1c8 023e
00000130: e913 093e d505 ddbe a1f4 1c3e 75eb 4c3e
00000140: 6d82 813e 7ef8 1f3e b87e af3e 5d4c 51be
00000150: 0eae 853e cb62 2fbd 9afc 323e 2d76 acbd
00000160: 8da3 143d 73a0 3abe aadb 00be 9081 56be
00000170: 7d7e 84be 38ae 813e 8d89 b1be 963c b0be
00000180: 9af5 13be af1e 41be 492a 3ebe 5819 be3e
00000190: 585e 6f3e ed66 8c3e 7fad e3bd 4aaa ec3e
000001a0: 4210 5cbe 9b6d dc3e c994 a73e f421 a23e
000001b0: 9c95 d83e 824e 553e 3c88 86bb 6cf0 5d3e
000001c0: 92c9 ba3e 1030 ce3e 2405 a33e af79 b8be
000001d0: db3d c03e 967f 3ebe 8db6 543e c271 8fbd
000001e0: 93d2 023e 47bd 4cbe 3f0d 37be dc10 d8be
000001f0: c9cd 8dbe 4828 6e3e 4066 95be d2fb eabe
0.24408606 0.36691722 0.2534901 -0.2796404 0.3008238 -0.11324173 0.18752809 -0.035950333
0.35627875 -0.3178438 -0.13227318 -0.33822703 -0.31967065 0.13361616 -0.27889463 -0.3756262
0.15952094 0.34589168 0.23384957 -0.2674558 0.2543371 -0.12885857 0.29424948 -0.16899891
0.43825275 -0.24359182 0.029402541 -0.4058944 -0.23262489 0.019975211 -0.21167243 -0.20308231
0.3105705 0.21995841 0.20598613 -0.09814692 0.2299197 0.080055036 0.34883094 0.114575334
0.43866712 -0.29230115 -0.071636684 -0.33279502 -0.07799811 0.21437138 -0.14573191 -0.24833669
-0.04713962 -0.2814664 -0.052683037 0.34765905 0.07045296 0.546384 -0.15507695 0.47271731
-0.24624027 0.4301792 0.44107607 0.14967954 0.28125995 0.48414412 0.31616727 0.18860719
-0.0009929157 -0.056134384 0.03195987 0.1358196 -0.37817818 -0.021308914 0.06396746 -0.120468214
0.180578 -0.061199844 -0.05919675 0.12771918 0.13386501 -0.43168512 0.15327694 0.20011695
0.2529482 0.15622136 0.34276366 -0.20439287 0.26109356 -0.042818826 0.17479172 -0.08420978
0.036288787 -0.18225269 -0.12583795 -0.20947862 -0.25877753 0.2532823 -0.34675255 -0.34421223
-0.14449158 -0.18859361 -0.18570818 0.3712871 0.23375833 0.27422276 -0.11117076 0.4622367
-0.21490577 0.43052372 0.32730702 0.3166653 0.42301643 0.2083073 -0.004105596 0.21673745
0.3648191 0.40271044 0.3183986 -0.36030337 0.37547192 -0.18603358 0.20772763 -0.070041195
0.1277564 -0.19994079 -0.17876147 -0.42200363 -0.27696064 0.23257554 -0.29179573 -0.4589525

model.2.bias f4 [8]
00000000: 9f5d c73d e480 1e3e ce27 323e 86ff d53d
00000010: 83b3 8f3e b074 48bb 5515 983d e11a d03d
0.09734654 0.15478855 0.17397997 0.10449128 0.28066644 -0.003058713 0.07425944 0.10161377

model.4.weight f4 [8, 8]
00000000: f018 313f 8401 8e3e 0f9a f23d dcf1 a7be
00000010: c372 b63e d90a 053f 3d0f 21bd 569c aa3e
00000020: 6ca8 0c3f e764 3e3e 5191 c63e 5972 92be
00000030: 669b 733e 3ff6 053f fa77 6cbe db89 e93e
00000040: da5c e33e 5602 f93e a076 373e f11a 93bd
00000050: 33eb 6d3e c99b ee3e 442d 05bf b778 243f
00000060: 461c 20be e3a6 0ebe 1611 1ebe d20c 123f
00000070: aecc d8be cc99 e2be 4179 193e d4a6 0bbe
00000080: 5528 99be fc94 adbe c03c 9dbc 99b8 103f
00000090: 8a19 f5be d6f1 eebe 7d56 dd3e 992f e3be
000000a0: 389f f53e 052e a93e 82c4 243e 9296 7dbe
000000b0: 31eb 863e 2293 d93e f4f7 f1bd f8c3 1d3f
000000c0: b240 0fbf c046 afbe c192 f33d f572 403e
000000d0: f785 01bf 4d1a 3cbe 7ac9 ea3e 3f7b 01bf
000000e0: 19d3 803e 4f82 113f 3671 0f3f 30c3 9ebe
000000f0: 17ad e03d 2626 d73e 39a7 e7be 3801 bc3e
0.69178677 0.2773553 0.118457906 -0.32801712 0.3563443 0.5196968 -0.039321173 0.333224
0.5494449 0.18593179 0.38782743 -0.28602865 0.23789749 0.52328867 -0.23092642 0.45612988
0.44406778 0.48634595 0.17916346 -0.07182873 0.23234253 0.4660323 -0.52022195 0.64246696
-0.15635785 -0.1393085 -0.15436205 0.5705081 -0.42343658 -0.44257963 0.14987661 -0.13637859
-0.29913583 -0.3390273 -0.019194007 0.56531674 -0.47871047 -0.4666888 0.43230048 -0.44372252
0.47973037 0.33042923 0.16090587 -0.2476447 0.26351312 0.42495066 -0.118148714 0.6162715
-0.5595809 -0.34233665 0.118932255 0.18793853 -0.5059504 -0.18369408 0.4585684 -0.50578684
0.25161055 0.5683946 0.5603212 -0.3100829 0.10970514 0.42021292 -0.45244768 0.3671968

model.4.bias f4 [8]
00000000: a8b2 7c3e eee4 473e 6e2e a23e 5b32 4a3e
00000010: ca81 5ebd 108d 3c3e 0b3b 713e 3df6 ce3e
0.24677527 0.19520923 0.31676048 0.19745772 -0.054322995 0.18413186 0.2355768 0.4042224

model.7.weight f4 [1, 8]
00000000: b63c 38bf d90c 35bf 83c8 17bf 6b3b e63e
00000010: 8140 003f 3e54 c9be d0cf 283f 6911 18bf
-0.7196764 -0.7072273 -0.5929033 0.44967207 0.50098425 -0.39322084 0.65942097 -0.59401566
