playground/clf4.pth (torch, 27953 bytes, 7 tensors)

model.0.weight f4 [16, 384]
000000 9b 58 8e bd 2b 1b c4 3c 25 a3 c4 bb c4 cd 29 bb
       -0.06950494 0.023938736 -0.0060008937 -0.002591
000010 5d 3c eb 3d 77 80 54 bc d2 06 16 3d dd d8 b8 bb
       0.11486123 -0.0129700815 0.036627598 -0.0056410865
000020 14 3e d5 3d 30 4e 33 3d b9 a4 e5 3d b9 d4 94 bc
       0.10412231 0.043775737 0.11213059 -0.01816784
000030 f0 08 89 bc 61 87 7e bc 36 2a 79 3d 69 46 90 3d
       -0.016727895 -0.0155352065 0.06083127 0.0704468
000040 4d 52 fd 3b 99 87 9c bc aa da ad bd 0b ca 8b bc
       0.0077307583 -0.019107627 -0.084889725 -0.017064115
000050 89 b8 80 3c a7 40 d4 bd 8a 73 9c 3d 59 20 8c 3d
       0.015712993 -0.10363894 0.07639225 0.06842107
000060 60 cb d2 bc 84 c7 a1 bd 22 0c 16 3d 9e bb c8 3d
       -0.025731742 -0.07899383 0.036632665 0.0980141
000070 56 f7 c0 3c fb 1b 98 bd d3 7c b7 3c 8f 23 3f 3d
       0.023555439 -0.07427212 0.022398388 0.04666477
000080 6e c0 10 be bc a9 93 bd c4 41 ab bd a3 b6 63 bd
       -0.14135906 -0.07210109 -0.08362153 -0.055594098
000090 4b da 23 3d 14 a1 a2 bb 3a ab 72 bb bc 1c 16 3e
       0.040003102 -0.0049630497 -0.0037028329 0.14659399
0000a0 cb d1 84 3d cf 2e 9b 3d 62 8c b3 3c 02 d4 e0 bc
       0.06485327 0.075772874 0.021917526 -0.027444843
0000b0 30 5a b1 bc c1 6e 1d bd 89 07 5d 3d 81 a5 11 3c
       -0.02164945 -0.0384357 0.053962264 0.008889557
0000c0 8a 94 97 3d 1c 87 df bd 7f 52 6d 3d 97 02 5d bc
       0.074013785 -0.10914442 0.057940003 -0.013489387
0000d0 31 b8 97 bd ca 7e 3f 3d 60 f3 97 bc da 4a 90 bd
       -0.074081786 0.046751775 -0.018548667 -0.07045527
0000e0 0e 1d 34 3c ef 71 e2 3b 9d 38 0f 3d 63 e0 9c bc
       0.010993255 0.0069105546 0.0349661 -0.019149965
0000f0 cf 77 69 bd 29 24 5a bc 86 d8 7f bd b4 ff 32 3d
       -0.056999024 -0.013314285 -0.062462352 0.04370089
000100 bb 11 3d 3d 91 5a a9 bd 33 55 1e 3d f5 df 23 3d
       0.046159487 -0.08269227 0.03865547 0.040008504
000110 85 3f e4 bc 46 d3 22 3d e9 d2 99 3d f3 fe 12 be
       -0.02786232 0.039752267 0.07510931 -0.14355068
000120 36 c0 0d be 4c 37 bf bc fb e1 70 bc ca f9 54 bd
       -0.13842854 -0.023341797 -0.014702315 -0.05199603
000130 9f c0 c1 3d 4d e7 39 bd d3 bd ff bc 28 d1 b4 bc
       0.09460568 -0.0453866 -0.031218445 -0.02207239
000140 05 3f 7a 3d 58 25 cd 3c e4 e4 a9 3b ad f0 f7 3c
       0.061095256 0.025042221 0.0051847566 0.03026613
000150 8f 26 b1 3d a6 03 cd bc 07 d9 b8 3b 3a e1 9a 3d
       0.086499326 -0.025026154 0.005641106 0.0756249
000160 4d 9b ae 3d fd 98 0f 3d 74 90 af bc 75 36 49 bd
       0.08525715 0.03505801 -0.021431185 -0.0491242
000170 7a 9d e8 bc 9a 34 d3 3c fe 73 51 3c 54 a8 fc 3a
       -0.028395403 0.025781918 0.012784002 0.001927624
000180 1c ce 8f 3c 55 54 e5 3c d4 d4 46 3d 15 1e bd 3d
       0.017554335 0.027994314 0.048542812 0.09234253
000190 77 f3 ba bd 32 77 b8 bb 7a 7d e4 bc 8c 7f 1a bb
       -0.091284685 -0.0056294436 -0.027891863 -0.002357456
0001a0 28 56 65 3c 28 dc ab b9 1c 6a df bd db eb 5f bb
       0.013997592 -0.0003277969 -0.10908911 -0.003416768
0001b0 71 44 28 3d 36 33 66 3d a2 f2 68 bc 54 0c 95 3c
       0.041080896 0.056201182 -0.014218004 0.018194355
0001c0 27 65 9e 3d c8 3b 73 3c 28 74 88 bd 17 d7 34 bd
       0.07734137 0.014845796 -0.0666278 -0.04415044
0001d0 44 15 49 3c 9a 4b 69 3b 39 85 5c bd e0 e2 d5 bc
       0.0122731365 0.003559804 -0.05383799 -0.026109159
0001e0 ca 94 98 bc aa df ca bd 4a 19 cc bc b5 f6 a3 bc
       -0.018625636 -0.09905942 -0.024914403 -0.0200151
0001f0 c9 f1 fb bc e7 56 54 be 9c e8 48 bd 0d 69 8f bc
       -0.03075494 -0.20736276 -0.04904996 -0.017506147
000200 5e e1 01 bd 1a 63 df 3d 4b 58 ba bd bd a1 d9 bd
       -0.031709068 0.10907574 -0.09098872 -0.10626552
000210 c5 07 1f 3d 89 0a 2d 3d be b1 a6 3a c0 74 fd bb
       0.03882577 0.042246375 0.0012717766 -0.007734865
000220 de 8c 84 bb 89 17 b9 3d ba 00 4e 3d 69 0b b2 bd
       -0.004045113 0.09037692 0.05029366 -0.086935826
000230 b4 f1 93 bc 7d f9 e4 bd ab 9a ca 3c 63 ef 23 3d
       -0.018059589 -0.111803986 0.024731955 0.04002322
000240 b7 42 80 bd 24 1b f2 bd ce 62 ea bc e6 a4 2b bc
       -0.06262725 -0.11821583 -0.028611567 -0.010476327
000250 67 f8 7d bd 9b 44 9c bd c5 e2 71 bd e0 c3 91 bc
       -0.062004473 -0.07630273 -0.059054155 -0.017793596
000260 09 ab 5b bd fd 41 21 3d ba 8d d7 bb be a6 1d bd
       -0.05362991 0.039369572 -0.0065781744 -0.038489096
000270 5f 83 95 bd 5d 4d 13 bd fd c8 a6 3c 56 f3 9b 3d
       -0.07300448 -0.03596245 0.02035951 0.07614772
000280 44 f8 e2 bc 5d 30 45 3b 6b 13 2d 3d 16 a1 ad 3d
       -0.027706273 0.0030088641 0.042254847 0.0847799
000290 6f 29 b4 bd 50 7d bb bc fc 3b e6 bc d0 97 0b bc
       -0.08796965 -0.022886902 -0.028104775 -0.008520082
0002a0 51 5b 56 3c 42 75 c0 3d 42 e3 9e 3c 60 66 5e bc
       0.013083295 0.09397365 0.019395474 -0.013574213
0002b0 40 20 15 3d 06 62 8f 3b 73 82 ad 3d 34 f8 ec bd
       0.03640771 0.004375699 0.08472147 -0.115707785
0002c0 ff be 57 bd ea 1e aa 3c 37 58 08 be d4 c5 c1 3d
       -0.052672382 0.020766694 -0.13314901 0.09461561
0002d0 66 e4 71 3c f1 7a 42 bc e9 5a 59 bd 76 52 95 3d
       0.014763927 -0.011870132 -0.053065214 0.07291119
0002e0 26 6a 77 3c 0a a4 07 3c 3e 83 a3 3c bc aa 5a bd
       0.015100991 0.008278856 0.019960042 -0.05338548
0002f0 d9 60 fc bc 9b cd 7f bd 75 ca fb 3b e6 ab 91 3d
       -0.0308079 -0.06245194 0.007684047 0.07112865
000300 04 58 cb bd fd 26 0f be dd f2 72 bd 3f 15 69 3d
       -0.09928897 -0.13979717 -0.059313644 0.056905027
000310 de 33 cf 3c be d7 eb 3c 03 a7 84 3c b2 d6 97 3c
       0.025293287 0.028789397 0.016192919 0.018534992
000320 31 85 5c 3c a0 d0 d8 3c 46 df 3d bd 8c b8 4c bd
       0.01345949 0.026466668 -0.04635551 -0.049980685
000330 02 12 86 3d 7e f2 d4 bd 5c 52 ad 3d c9 ca a9 3c
       0.065464035 -0.10397814 0.084629744 0.020726578
000340 6c d6 45 3b da 1a 8c bd 8d fa d6 3d 16 9a 34 3d
       0.003018762 -0.06841059 0.104970075 0.04409226
000350 c6 94 4d 3d a2 e4 52 3b 9f 05 65 bd 80 08 f9 bc
       0.05019071 0.0032179733 -0.055913564 -0.03039956
000360 be 2d ce bd b7 67 34 3c ad b6 4e bc 49 a1 c3 3b
       -0.100673184 0.011011056 -0.0126167955 0.0059701544
000370 e2 b4 20 3d 99 2f 60 3b 71 ac e1 3d 00 4e 6a 3d
       0.039235003 0.0034208058 0.11019219 0.057203293
000380 21 18 84 3c a6 2f 31 bd ba 84 12 3c fc 49 9a 3c
       0.016124787 -0.04325833 0.008942777 0.018834107
000390 28 30 ae bd cf 17 43 3d 29 5a 05 3e 86 51 1f bd
       -0.08505279 0.047630128 0.13022675 -0.038896106
0003a0 98 75 7b bd 23 be 17 3d ac 69 8d bd 68 9f b4 3b
       -0.061391443 0.037046563 -0.06904921 0.005512167
0003b0 b5 f9 f3 3d b7 f6 09 3d c1 f6 d0 3d 53 55 f3 3c
       0.11912862 0.03368255 0.102033146 0.029703772
0003c0 f8 71 f2 bc 6b a5 2b 3d 44 58 93 3b 1b f8 04 be
       -0.02959536 0.0419058 0.004496606 -0.1298527
0003d0 b1 1b 99 bc 5e 3a 8c 3d 08 6e e3 bc 8e c2 52 bd
       -0.018689962 0.0684707 -0.027762428 -0.051455073
0003e0 bd ee 41 bb a8 f1 4e bd a9 49 4e bd 15 6c 8b 3c
       -0.0029591762 -0.05052343 -0.050363217 0.017019311
0003f0 2e 9d e0 3b 7e ce 32 3e b2 31 f3 bc c7 43 07 3d
       0.006854675 0.17461583 -0.029686783 0.033023622

model.0.bias f4 [16]
000000 c4 fc 19 bd 6f b2 3f 3e d1 1c a0 3d 5b 34 33 3e
       -0.03759457 0.18720411 0.07817996 0.17500441
000010 a9 69 1a bd 1b b2 98 bd 55 3b 6b bd c2 f5 e2 bc
       -0.03769842 -0.07455846 -0.05742963 -0.027705077
000020 75 58 94 bd dc 9c a8 3d 62 34 06 3e 06 87 e5 bc
       -0.07243434 0.082330436 0.1310592 -0.028018486
000030 c5 b6 4d 3e 65 fe 34 3d 54 41 d9 3d ba 72 13 3e
       0.20089252 0.044187922 0.106081635 0.14399233

model.2.weight f4 [8, 16]
000000 5e f3 5c bb 87 7e 8a 3e 8f f8 ae 3e 71 ce ce 3e
       -0.0033714394 0.27049658 0.3417401 0.40391877
000010 0c 1e 7c be 52 2a 8e be c3 e7 96 be 11 d7 d2 be
       -0.24620837 -0.27766663 -0.29473695 -0.41179708
000020 7a e5 ee be 59 e6 ba 3e 5d 83 89 3e b9 99 bc be
       -0.46659452 0.36503866 0.26858035 -0.3683603
000030 f8 10 7f 3e f2 50 a8 bd c2 2a 4c 3e c0 1d a7 3e
       0.24908817 -0.08218564 0.19938186 0.32639885
000040 6c 02 72 3d 61 49 0c be 85 fd ba 3d 02 07 a2 bd
       0.05908434 -0.13699867 0.09130386 -0.07911493
000050 19 2c 2e 3c 40 45 09 be 66 d3 54 3d 8d 46 46 3d
       0.010630631 -0.13405323 0.051959418 0.048407126
000060 ce bc f1 bb 2e aa f2 bd 08 36 d6 bd 5a 44 b6 3d
       -0.0073772436 -0.118488654 -0.104595244 0.08899756
000070 fe 5d 27 3e fa 61 03 bc c5 b6 4d 3c 66 6a ae bd
       0.16344449 -0.008018965 0.012555783 -0.08516388
000080 e8 5b ed 3d 3f 2d 59 3e e0 3d 07 be c8 61 8c be
       0.11589795 0.21208666 -0.13207197 -0.2741835
000090 39 9b b2 3e ce f4 6d 3e af 7f 8d 3e 94 95 7f 3e
       0.3488405 0.23237917 0.27636477 0.24959403
0000a0 db 08 aa 3e 39 97 29 be ac df d3 3e f0 7c f3 3d
       0.3320988 -0.16561593 0.41381586 0.11889064
0000b0 1f 54 e5 be 6a 85 41 3e 08 04 02 be 07 45 95 3e
       -0.44790742 0.1889855 -0.1269685 0.29154226
0000c0 af 36 01 be c6 9c 08 3e 26 c5 47 3d 43 0d ac 3e
       -0.12618516 0.13341054 0.048772 0.33603868
0000d0 53 b4 0d be 1f 4a 0e be 09 c8 07 be 90 7a 75 be
       -0.1383832 -0.13895462 -0.13259901 -0.23972535
0000e0 57 4b 73 be 72 61 d9 bc d9 34 39 bc f7 2e 33 be
       -0.23759209 -0.026535723 -0.011304104 -0.17498384
0000f0 ae 8e bd 3e 16 47 db 3d b2 e3 a6 3e 63 2c 15 be
       0.37022918 0.10706918 0.32595593 -0.14567713
000100 cb f1 94 3e 25 e5 06 3e 1a 8d 2f 3e 1c 1d b8 be
       0.29090723 0.13173349 0.1714367 -0.3595971
000110 ef 5e 9f 3e 23 14 2e 3e fc 4d 9a 3e 83 c4 c5 3e
       0.31127116 0.16999869 0.30137622 0.3862649
000120 14 be a1 bc a9 e8 65 3d 84 25 aa 3e 7f 08 20 3e
       -0.019743957 0.056130085 0.33231747 0.15628241
000130 6d 75 b4 be c0 38 a9 3e d9 20 1f be 42 e4 98 3d
       -0.3524584 0.3305111 -0.15539874 0.07465412
000140 01 15 3d 3c 99 fb 43 39 19 d7 a1 bc e2 c4 5f bc
       0.011540652 0.00018690377 -0.019755887 -0.01365778
000150 84 d2 e9 3c f7 60 0a 3c 5b 54 54 bc fb 75 24 3c
       0.028542764 0.00844597 -0.012959565 0.010037894
000160 52 9d ab b9 e6 18 f1 bc 3d 73 2d 3b 99 fd bd bc
       -0.00032732874 -0.029430818 0.0026466392 -0.023192214
000170 69 37 b2 bb 90 69 8b bb 12 9c 65 bb 52 69 bd 3b
       -0.0054387343 -0.0042545274 -0.0035035652 0.0057803774
000180 39 ad df 3d dc 84 9d 3e 3d 77 6f bc d2 6e 80 3e
       0.109217115 0.30765426 -0.014615831 0.2508455
000190 32 6b 07 3e 2a c3 3c 3e dd 12 d0 3d 41 7a 7b bd
       0.13224486 0.18433824 0.10159848 -0.061395887
0001a0 ac 48 b1 3e 0f 89 b3 bd e4 45 03 3f 5c 84 a1 3e
       0.34625757 -0.08766376 0.5127852 0.31546295
0001b0 59 c3 2c 3e f4 e9 b6 3e 88 ad 57 3e ec fd 9d 3e
       0.16871394 0.35725367 0.2106229 0.3085779
0001c0 c8 dc d7 3e 02 ad 8d 3e f1 89 1c be c6 d2 6b bd
       0.4216063 0.27671057 -0.15286995 -0.057574056
0001d0 a9 c8 21 3d e0 6c 71 3e 89 00 23 3d 7d 44 bf 3d
       0.039498005 0.23576689 0.039795432 0.09339235
0001e0 0c 98 8d 3e 9c 78 3f be 48 f4 ca 3d f3 ba 7f 3e
       0.27655065 -0.18698353 0.09909874 0.24973659
0001f0 97 66 7f be 7c 8b 13 3e 09 97 45 be b9 cc 18 3e
       -0.24941479 0.14408678 -0.19295897 0.14921845

model.2.bias f4 [8]
000000 c0 fb ad 3e f4 ed 80 3d c3 75 fd bd 0a 8c b8 3e
       0.33981133 0.06295386 -0.12375977 0.3604434
000010 08 23 33 be dc c7 c3 bc 6d b5 bb 3e b3 e0 4e be
       -0.17493832 -0.023899011 0.36661854 -0.20202903

model.4.weight f4 [8, 8]
000000 78 8e e3 bd 67 b1 82 be 7e bd 7c 3e 23 cb f4 be
       -0.11111158 -0.25525972 0.2468166 -0.4781123
000010 54 11 c7 3e b1 50 24 3d 7b 08 a1 3d 9b 59 1d 3e
       0.38880408 0.040116016 0.07862946 0.15366213
000020 a2 9a f2 3e fd 09 58 3d 34 97 20 bf fd 02 08 3f
       0.473836 0.0527439 -0.6273072 0.5312956
000030 66 e7 df be 61 72 91 bd a2 ae f4 3e 6f b2 7d be
       -0.4373123 -0.07101894 0.47789484 -0.24775098
000040 27 01 d8 bd 1a a5 43 bd 15 1e d4 3e d5 31 d2 be
       -0.10547095 -0.047764875 0.414292 -0.41053644
000050 a2 bb c3 3e 50 d5 fc 3b 40 a6 1e 3e 0f cf 0e 3f
       0.3822909 0.0077158585 0.15493107 0.55784696
000060 80 97 a1 be da 8a 7c be d2 5f 4d 3e 85 ff ac bd
       -0.31560898 -0.24662343 0.20056084 -0.08447174
000070 97 42 87 3d 9f e9 a0 3a 51 b5 78 3e 88 7b 7e 3d
       0.06604498 0.0012276656 0.24287917 0.062129527
000080 8e ec be 3e 15 1a 9b bd 6c 11 f0 be 30 91 a9 3d
       0.37289852 -0.07573334 -0.46888292 0.082796454
000090 92 bc a1 be 6e 2b 90 bb bb ff 95 3e 61 17 df be
       -0.3158918 -0.0043997085 0.2929667 -0.43572524
0000a0 59 d1 84 be cf 7f 0b bd 1f 19 8c 3e e5 8a e9 bd
       -0.2594097 -0.034057435 0.27362916 -0.11403445
0000b0 32 4e 94 3e f4 39 3b 3b ec 03 94 3d a5 bc 10 3f
       0.28965908 0.0028568478 0.072273105 0.5653785
0000c0 ed dc 26 be 6c 64 16 be 39 16 9c 3e 2b b9 b2 be
       -0.16295214 -0.14686745 0.30485705 -0.34906897
0000d0 a6 7b d7 3e ca 09 91 3b 62 6a 53 3e 01 f7 07 3f
       0.42086524 0.004426216 0.2064605 0.53111273
0000e0 74 5d 28 be 31 0d 57 3d 4f 21 60 3e 02 eb c7 be
       -0.164419 0.052502815 0.21887706 -0.39046484
0000f0 3b eb b8 3d 5d 1c c0 3b ed 9c 84 3e 09 3e ad 3e
       0.09029242 0.005862756 0.25900975 0.33836392

model.4.bias f4 [8]
000000 18 d8 8c 3e c4 b0 d3 3d b8 07 8e bd a7 58 15 3e
       0.27508616 0.1033645 -0.06935066 0.145846
000010 b8 3e 54 3e 8a 59 52 3e 3c 74 9c bd db 4c 11 bd
       0.2072705 0.20541969 -0.076393574 -0.035473686

model.7.weight f4 [1, 8]
000000 0a ad f7 3e 63 db c0 be d7 e3 ca 3e c4 53 33 3e
       0.48374206 -0.3766738 0.39626953 0.17512423
000010 00 35 f5 be b6 8f a6 3e 58 ca f8 3e d4 da 10 3f
       -0.47891998 0.32531518 0.48591876 0.56583905
