playground/clf5.pth (torch, 27953 bytes, 7 tensors)

model.0.weight f4 [16, 384]
000000 2d 38 b7 3d 81 e0 01 bd 64 22 0e 3d 11 de a2 3d
       0.089462616 -0.031708244 0.034700766 0.07952512
000010 8a 25 77 3d 0f c0 73 bd 14 6e 17 bd cf 23 5f 3d
       0.060338534 -0.059509333 -0.036970213 0.05447751
000020 6b 1d 75 3d e8 eb 46 3c 70 60 26 3d cc 1a 88 3b
       0.05984251 0.012141205 0.040619314 0.004153585
000030 fd 3a b5 3d cf 0e 47 bd be 90 c9 bd 62 df a1 3a
       0.08849142 -0.048598107 -0.098420605 0.0012349898
000040 20 3d b3 bd 10 89 50 ba 22 59 b3 bc a7 89 4e bc
       -0.08751893 -0.0007954994 -0.021893088 -0.012606061
000050 68 1f 35 3d ac 36 35 3d bb 5b 63 bd 09 f6 5c 3d
       0.044219404 0.044241592 -0.055507403 0.053945575
000060 1d f1 7b 3d 24 b3 a3 3c 00 f0 86 bd 50 bd d1 bc
       0.06150924 0.019982882 -0.06588745 -0.025602967
000070 06 6b fa bd 9d 23 82 3d b6 bc a5 bc bf fe a9 bd
       -0.12227444 0.06354449 -0.020231586 -0.08300542
000080 51 78 07 3b fb 43 cb bc 6e b1 5c 3d d7 e0 0c be
       0.002067108 -0.024812689 0.053880148 -0.13757645
000090 27 05 0a 3c 2a 37 cb bc e5 b3 65 3d 4f 83 c3 bd
       0.00842408 -0.024806578 0.056079764 -0.095465295
0000a0 bd 08 be 3d 3f 1e b2 3c 0e c3 98 bd 4d c0 12 3c
       0.092790104 0.021742938 -0.07459079 0.008956981
0000b0 cc d5 b0 bd 10 80 5a bd 52 e1 80 bd 82 d3 27 bd
       -0.086345285 -0.053344786 -0.062929764 -0.040973194
0000c0 72 2e 89 3d a9 1f 7b bd d3 37 8c 3c a2 13 56 bc
       0.06698312 -0.06130949 0.017116463 -0.013066204
0000d0 c9 14 a3 bd d2 66 f3 3c a6 90 0b bd c1 a1 23 bd
       -0.07962949 0.029712114 -0.034073494 -0.039949182
0000e0 b2 ac e0 bb a4 f6 45 3d 76 9d 04 bd 3b 83 b9 3d
       -0.0068565244 0.048330918 -0.03237673 0.09058233
0000f0 2f eb f6 3c 00 3b c2 3b af b7 a8 3d 67 e1 dd bb
       0.030141441 0.0059274435 0.0823816 -0.006771255
000100 75 a9 e8 3c d5 79 88 3d 00 fb 2f 3d 9a f5 7a 3d
       0.028401116 0.066638626 0.04296398 0.06126938
000110 28 23 d7 3c ca 28 cc 3d a0 4d 8f bd 76 f8 e4 bc
       0.026261881 0.099687174 -0.06997228 -0.027950507
000120 4c 96 3c 3d ae 77 76 ba f1 5d 3f bd 7c d3 59 3b
       0.04604177 -0.0009401989 -0.04672045 0.0033237627
000130 39 2d 97 3d 67 24 14 3e ee 0c 36 3d fa 04 f4 bb
       0.073816724 0.14467011 0.044445924 -0.0074468823
000140 db f0 da bc 60 7b 3a 3d 5d 12 bc 3c 2c 39 84 bc
       -0.026726177 0.045527816 0.022957975 -0.016140543
000150 86 ff 84 bc b0 56 cb 3c 78 3a ab 3c d9 c5 ab ba
       -0.016235124 0.02482161 0.020901904 -0.0013105228
000160 09 6e 97 3d 5e 9e a7 bd d6 1b 6f bd f5 8b 6d bc
       0.073940344 -0.08184503 -0.058376156 -0.0144987
000170 0a 6c e6 3c 70 f7 9a 3d 4e 37 88 3c 05 0f b3 3c
       0.028127689 0.07566726 0.016627934 0.021857748
000180 2c 13 92 3d 07 74 b4 bb 59 ba d7 bd 32 62 88 bd
       0.07132563 -0.0055069956 -0.1053359 -0.06659354
000190 13 e2 cd 3d 9b 69 ec bc 5e a9 ac bd 34 e2 17 bd
       0.10052886 -0.02885895 -0.08430742 -0.03708096
0001a0 22 51 e0 bc 89 7e ac 3c 9e 21 b1 3c 9d 1c 3e bd
       -0.027382437 0.02105643 0.021622475 -0.046414007
0001b0 43 44 a3 bd 93 7a ec bc 3f 3d d1 bd 88 07 12 3d
       -0.07972004 -0.028867042 -0.1021676 0.035651714
0001c0 2f fe f5 3c 19 1a ba 39 0d 69 03 bd 76 fd 6a 3d
       0.03002843 0.0003549613 -0.032082606 0.057370625
0001d0 b1 c4 b6 3d 2e 60 30 3d 46 a0 32 bc 7f 36 b0 3d
       0.08924235 0.043060474 -0.01090247 0.08604144
0001e0 61 d9 17 3c 3c ab c4 bd 18 0d b2 bc 2e 36 b2 3d
       0.009268136 -0.09602973 -0.02173476 0.0870174
0001f0 00 9f 59 bb f7 03 41 3d 08 24 62 bd 9f 69 86 bc
       -0.0033206344 0.04712292 -0.055210143 -0.016407786
000200 9b f4 47 3d bb ee 7a bd 2b 4f 94 3c 2e b5 01 be
       0.04881726 -0.061262827 0.018104156 -0.12666771
000210 e6 7d 6a 3d 65 6d 02 bd 13 6d fd 3d 3d 45 1b 3d
       0.057248972 -0.031842608 0.1237432 0.037907828
000220 7b b2 3e 3d 7e 29 65 3d 00 0c ac 3c 1b e7 8a bd
       0.04655693 0.055947773 0.021001816 -0.06782361
000230 b0 87 5c bd d4 9d b7 ba 76 89 0d 3e 6e 20 da 3b
       -0.05384034 -0.0014008828 0.13821968 0.006656698
000240 20 2d 3c 3e b9 c9 35 bc b6 1b d1 3d 3d a0 4b bd
       0.18376589 -0.011095458 0.102103636 -0.049713362
000250 c2 4a a4 bd 37 af 68 3d c8 56 43 bc 62 7e ce bc
       -0.080220714 0.056807723 -0.011922546 -0.025206748
000260 81 dc 65 bd 8a dd a7 bd a1 a0 67 bd 77 fe 14 bd
       -0.056118492 -0.08196552 -0.056549672 -0.03637549
000270 21 d8 f3 3c 39 5f 36 bd 9d 71 3e 3c e7 0d 6d 3c
       0.029766144 -0.044524405 0.011623767 0.014468647
000280 5b d8 3f 3d fd db 9e 3d 52 45 c1 3c b4 e3 ef bd
       0.046837192 0.07756803 0.023592625 -0.11713353
000290 8f a6 a8 bc d2 04 ff 3c 16 3a 95 bc e1 0a 08 3d
       -0.020587234 0.031130228 -0.018216174 0.0332135
0002a0 49 af a1 bd fc dc 37 3d ff 91 8c bd 29 d4 80 bb
       -0.07894761 0.04488848 -0.06863784 -0.0039315415
0002b0 df 12 8e 3d 69 7e 0d bd 8f 13 8c 3d a6 00 6d 3c
       0.06937193 -0.034544382 0.06839668 0.014465487
0002c0 25 a4 bf bc b0 ce 1c bd d2 eb a3 3d 93 2b 25 3d
       -0.0233937 -0.03828305 0.080039635 0.04032476
0002d0 ee 69 a5 3d a9 ea 36 bc 10 a4 8b bc e3 f4 61 3d
       0.08076845 -0.011164346 -0.017046005 0.055165183
0002e0 4f f4 6b bd 25 0a 87 bd 8d e2 3e bc 1d b2 57 bd
       -0.057606038 -0.06593732 -0.011650694 -0.052660096
0002f0 73 b8 90 bb bb 99 dd bc b2 37 bf bd 74 f0 20 bd
       -0.0044165193 -0.027050843 -0.09336795 -0.039291814
000300 6f 93 11 3c ea f0 63 bd f7 e2 9e bd eb 1c b6 bd
       0.008885249 -0.055649675 -0.07758134 -0.088922344
000310 ef 92 58 bd 2b 8b 80 bd ac e2 b8 bc 87 f3 2e 3d
       -0.0528745 -0.06276544 -0.022569023 0.042712715
000320 b9 8f 44 bd 22 35 4c bd e1 9c b2 bd 03 09 d6 bc
       -0.047988627 -0.04985536 -0.087213285 -0.026127344
000330 f9 b9 0c 3b eb c1 8b 3d cd 59 73 bd 64 40 67 3b
       0.0021473153 0.06824096 -0.059411813 0.0035286183
000340 8c 80 59 3c 4d 38 e4 bd 33 01 39 3c f8 12 98 3c
       0.013275277 -0.11143551 0.01129179 0.018563733
000350 5f 0d ca 3b cd 05 e9 3c 6f a1 06 3d e4 27 48 bc
       0.0061661447 0.028445149 0.0328688 -0.012216542
000360 f7 15 99 3d b3 4e 8d 3d 6f ec 0c be 1b 5b b9 3c
       0.074748926 0.06899776 -0.13762067 0.02262645
000370 02 ac e6 bd 2c 63 83 3d 90 0f 28 bd 68 3c b4 3c
       -0.11263277 0.064154 -0.041030467 0.02200146
000380 6e 51 fb bc 00 1f 89 bd ef 57 47 bd 32 3a e2 bb
       -0.030678477 -0.06695366 -0.048667844 -0.00690391
000390 4b b3 08 3d 26 4e 8b 3d c2 8e 05 3c 96 6f 38 bd
       0.033374112 0.06802015 0.008151712 -0.04502829
0003a0 b9 07 97 3c c6 85 15 3d 93 78 c8 3b 9f e6 99 3d
       0.0184363 0.03650453 0.006117889 0.075146906
0003b0 76 13 e0 bc b6 ef dd bc cd cd d7 3c 99 86 3f 3d
       -0.02735303 -0.027091842 0.02634325 0.04675922
0003c0 59 b0 7b 3c 66 89 89 3c ee 13 49 bd ac 56 a4 3a
       0.015361869 0.01678915 -0.049091272 0.0012538037
0003d0 7d aa 4e bd c9 22 99 3c cf 0b 02 be b1 3d b2 3c
       -0.05045556 0.018693345 -0.12699817 0.021757932
0003e0 d3 a5 0a 3c 39 8f cc bc a2 7f d5 3d 1a e4 aa 3d
       0.008462387 -0.024970638 0.10424735 0.08344288
0003f0 8b fe 8c bc cc a8 38 bd c4 07 0c 3d f4 cc 08 3d
       -0.01721122 -0.045082852 0.034187093 0.033398584

model.0.bias f4 [16]
000000 fd 9b b8 3d d3 94 98 bd f0 e5 07 bd 2b cd 47 be
       0.090141274 -0.07450261 -0.03317827 -0.19511859
000010 a1 c3 a6 bd 38 95 ad bd 66 ae 11 bd be f7 15 be
       -0.08142782 -0.08475727 -0.03556671 -0.14645287
000020 97 37 3d bd 38 9b 85 bd f8 8c 32 be a2 cd 2d bc
       -0.046195593 -0.06523746 -0.17436588 -0.010608109
000030 0a f5 33 be 00 45 fc bc 79 48 a5 bc af a4 d0 bb
       -0.17573944 -0.03079462 -0.02017616 -0.006367288

model.2.weight f4 [8, 16]
000000 eb 6a b8 be 44 8b 46 3e 62 9f 14 3e 28 f6 18 3d
       -0.36019072 0.19389063 0.14513925 0.037344128
000010 f6 ef 52 3e ab f6 76 3e f7 9d 8c 3e e5 f1 b5 bc
       0.2059935 0.24117534 0.27464268 -0.02221007
000020 8b d1 42 3e 04 ed c6 3d 57 5a 94 3d ef 87 26 3e
       0.19025247 0.09713176 0.072437935 0.16262792
000030 32 0e bf 3d 56 49 80 3e 6b a8 76 be 33 4a 1e be
       0.093288794 0.2505595 -0.24087684 -0.15457992
000040 95 72 32 3e 9f df 45 bd ca 54 a1 3d 3d 2f 0e bd
       0.17426522 -0.048308965 0.078775 -0.03471302
000050 0d 92 1a be db 4d 51 3c 2a 1d 2d bd d7 30 6a bd
       -0.15094776 0.01277491 -0.04226414 -0.057175484
000060 fa a8 08 3d 67 22 a4 bd e2 06 07 be e3 34 90 bd
       0.033364274 -0.08014374 -0.1318622 -0.07041337
000070 bc 08 34 bc 8a c9 56 bd 75 4d 20 3e 72 6a 35 3e
       -0.010988411 -0.052438296 0.15654548 0.17716387
000080 17 a5 cf be 4d c5 62 3e 49 78 68 3e 27 b9 a5 3e
       -0.4055564 0.22145577 0.22702135 0.32367823
000090 52 5a d1 3d f8 b9 74 3e 0d fa 8e 3e 43 88 55 3e
       0.10222305 0.23899066 0.2792515 0.20852761
0000a0 a9 7b 4d 3e 32 5e 4f 3c c9 f5 2d 3d f6 a3 5f 3e
       0.20066704 0.012656735 0.042470727 0.2183989
0000b0 f1 68 61 3e f5 79 0e 3e 07 16 7f be 25 7c 6f be
       0.22012688 0.1391371 -0.24910747 -0.23387201
0000c0 cd b9 34 be 53 1b 80 3e 3c bc d7 3d 2a 2a 72 3d
       -0.17649002 0.25020847 0.1053395 0.059122242
0000d0 52 78 0d 3e 63 b2 3f 3e a1 59 54 3e 13 21 02 3c
       0.1381543 0.18720393 0.20737316 0.007942456
0000e0 f8 f7 2a 3e 52 b3 12 3e 45 e3 0d 3e 60 19 21 3e
       0.16696155 0.14326218 0.13856228 0.15732336
0000f0 91 9f 28 3e 65 3a 9a 3d 48 d8 78 be 4f 2d 24 be
       0.1646712 0.07530669 -0.24301255 -0.16032909
000100 9d 61 e0 be de aa 86 3e 16 14 94 3e c7 9f 76 3d
       -0.43824473 0.26302236 0.28921574 0.06021097
000110 f2 5a 43 3e ed d1 61 3e 5b a1 72 3e d9 69 42 3e
       0.19077662 0.22052737 0.23694365 0.1898569
000120 89 af 45 3e 40 ae 93 3e c2 c1 51 3d f6 aa 75 3e
       0.19305243 0.2884388 0.051210172 0.23990998
000130 10 48 df 3d 78 0c 16 3e 35 d0 b1 be 99 42 a3 be
       0.10902417 0.14653194 -0.34729162 -0.31886747
000140 0b 0e 51 be 19 55 8b 3d 13 f3 e4 3d dc 1b 3a 3e
       -0.20415513 0.068033405 0.11179175 0.1817469
000150 5a a1 88 3e c1 e5 6f 3e 6e d5 04 3e ad f0 7c 3d
       0.266856 0.23427488 0.12972042 0.061752964
000160 90 73 01 3e f9 90 35 3e dd d0 51 3e ec 27 3e 3e
       0.1264174 0.17731084 0.20489831 0.18569916
000170 88 a9 49 3e b9 a7 f7 3d 66 13 49 be d2 7a 2e be
       0.19693577 0.120925374 -0.19636306 -0.1703904
000180 91 e4 1c 3e 95 fb 75 bc 0b e7 9e 3d 03 8c 86 bd
       0.15321566 -0.015013595 0.07758912 -0.06569674
000190 b9 5b d8 3c 33 d0 5a bc 90 7d d4 bc 64 1b 98 bc
       0.026410924 -0.013355303 -0.02593878 -0.018567748
0001a0 a5 1e b8 3c 8a c6 b7 3d c8 08 90 bd 73 1e 05 3d
       0.02247555 0.08973415 -0.07032925 0.03249974
0001b0 9a 72 5b bd 70 97 5e 3b d9 40 28 3e ee bd 01 3e
       -0.05357609 0.0033964776 0.16430987 0.12670109
0001c0 61 72 76 be 3b e6 8c bd 69 bc f8 3d 8b 0f 77 3e
       -0.2406707 -0.068798505 0.121453114 0.24127023
0001d0 1e 59 87 3e a7 0e b5 bd 17 1f 29 bd 60 fe 86 3e
       0.2643518 -0.08840685 -0.041289415 0.26365948
0001e0 d8 23 50 3e 26 9d 58 3e ef 5b a2 3e af 31 34 3e
       0.20326173 0.21153697 0.31710765 0.17597078
0001f0 a2 90 86 3e 85 da 71 3e 7f 9d 5e be 4e 93 86 be
       0.2628222 0.23618515 -0.21739767 -0.2628426

model.2.bias f4 [8]
000000 5d de eb bd af 66 5c 3e c2 f7 09 be 91 8a f9 bd
       -0.11517022 0.21523546 -0.13473418 -0.121846326
000010 94 ec 41 bc 91 7a 6c be 8f 9b 82 3b 6d f1 6b bd
       -0.01183619 -0.2309363 0.003985829 -0.05760329

model.4.weight f4 [8, 8]
000000 bb f5 61 3d 77 12 8d bd 83 8c e2 3e a6 46 28 3e
       0.055165987 -0.068882875 0.44247827 0.164332
000010 28 93 09 3f 31 1e b1 3e ed e9 dc bd 8e eb 1c bd
       0.5374017 0.34593347 -0.10786805 -0.03831058
000020 33 ab 98 3e 67 2c 89 be 79 62 4c 3e 3c 3d a8 3e
       0.29818115 -0.2679169 0.1995944 0.32859218
000030 dc d3 e7 3e ba 64 b8 bd 7a 04 27 bd 76 8a b5 3e
       0.45278823 -0.09003587 -0.040775754 0.354572
000040 25 14 98 3e cd d7 7a be 54 73 91 3d 83 f3 6f 3e
       0.2970287 -0.24496384 0.07102075 0.23432736
000050 fd b1 6d 3e 5f 24 44 3e 10 f9 88 3c 3a e2 38 be
       0.23212428 0.191545 0.016720325 -0.18055049
000060 17 7c d5 3e 4c 04 36 bd 6f 49 7d 3e d7 22 5c bc
       0.41696236 -0.04443769 0.24735044 -0.013436041
000070 e1 65 95 3e e6 1e dd 3e 50 97 5e be 28 2f 51 3e
       0.2917929 0.43187636 -0.21737409 0.20428145
000080 dc c8 f7 3e 82 f1 7d be a7 6c 96 3e ef 1f 23 3e
       0.4839543 -0.24799159 0.2937977 0.1593015
000090 fa 4e 93 3e f7 1f c3 3e 42 ad 17 bd 43 f2 74 3e
       0.28771192 0.38110325 -0.037030466 0.2392054
0000a0 6b c6 07 3b 43 74 f3 bc e2 10 fe bd b7 76 43 bd
       0.0020717632 -0.029718524 -0.12405564 -0.047720637
0000b0 d4 7c 11 3e e7 a2 1d 3e 50 7b 83 3b 36 f9 02 bc
       0.14207774 0.15394174 0.0040125027 -0.007993987
0000c0 d2 e8 ef 3d fd 7b 95 bd 3d 0e 4d 3e 6e 0c 19 3e
       0.11714329 -0.072990395 0.20024963 0.14946148
0000d0 ae 6a 15 3e 86 80 7e 3e 03 5d 30 bd f0 75 39 3e
       0.14591476 0.24853715 -0.043057453 0.18111396
0000e0 44 9f b4 3e 3a b4 01 be be a8 9e 3e d3 9a 83 3e
       0.3527776 -0.12666407 0.30988115 0.2570406
0000f0 ee 62 2d 3e 61 d7 ce 3e 82 ba 10 be ed 41 87 3e
       0.1693227 0.40398696 -0.14133647 0.26417485

model.4.bias f4 [8]
000000 88 51 d2 bd 87 cb c9 bd 1d 40 54 3c f4 2f 91 bd
       -0.10269457 -0.09853273 0.012954739 -0.070892245
000010 43 d4 cf bd a1 30 1b be d4 11 7e bd 54 53 bd bd
       -0.101479076 -0.15155269 -0.06202872 -0.09244409

model.7.weight f4 [1, 8]
000000 5d 63 c1 3e 99 2e f6 3e e5 c1 b8 3e f0 d8 e0 3e
       0.3777112 0.48082426 0.3608543 0.4391551
000010 c4 92 c9 3e 7a 63 91 bd 18 4a 10 3e 57 f6 9a 3e
       0.39369786 -0.07099052 0.14090765 0.30266067
